<?xml version="1.0"?>
<net name="torch_jit" version="11">
	<layers>
		<layer id="0" name="input" type="Parameter" version="opset1">
			<data shape="?,3,256,128" element_type="f32" />
			<output>
				<port id="0" precision="FP32" names="input">
					<dim>-1</dim>
					<dim>3</dim>
					<dim>256</dim>
					<dim>128</dim>
				</port>
			</output>
		</layer>
		<layer id="1" name="Constant_36447" type="Const" version="opset1">
			<data element_type="f32" shape="1, 1, 1, 1" offset="0" size="4" />
			<output>
				<port id="0" precision="FP32">
					<dim>1</dim>
					<dim>1</dim>
					<dim>1</dim>
					<dim>1</dim>
				</port>
			</output>
		</layer>
		<layer id="2" name="Constant_36448" type="Const" version="opset1">
			<data element_type="f32" shape="1, 1, 1, 1" offset="4" size="4" />
			<output>
				<port id="0" precision="FP32">
					<dim>1</dim>
					<dim>1</dim>
					<dim>1</dim>
					<dim>1</dim>
				</port>
			</output>
		</layer>
		<layer id="3" name="Constant_36449" type="Const" version="opset1">
			<data element_type="f32" shape="1, 1, 1, 1" offset="0" size="4" />
			<output>
				<port id="0" precision="FP32">
					<dim>1</dim>
					<dim>1</dim>
					<dim>1</dim>
					<dim>1</dim>
				</port>
			</output>
		</layer>
		<layer id="4" name="Constant_36450" type="Const" version="opset1">
			<data element_type="f32" shape="1, 1, 1, 1" offset="4" size="4" />
			<output>
				<port id="0" precision="FP32">
					<dim>1</dim>
					<dim>1</dim>
					<dim>1</dim>
					<dim>1</dim>
				</port>
			</output>
		</layer>
		<layer id="5" name="//nncf_model_input_0|OUTPUT/FakeQuantize" type="FakeQuantize" version="opset1">
			<data levels="256" auto_broadcast="numpy" />
			<input>
				<port id="0" precision="FP32">
					<dim>-1</dim>
					<dim>3</dim>
					<dim>256</dim>
					<dim>128</dim>
				</port>
				<port id="1" precision="FP32">
					<dim>1</dim>
					<dim>1</dim>
					<dim>1</dim>
					<dim>1</dim>
				</port>
				<port id="2" precision="FP32">
					<dim>1</dim>
					<dim>1</dim>
					<dim>1</dim>
					<dim>1</dim>
				</port>
				<port id="3" precision="FP32">
					<dim>1</dim>
					<dim>1</dim>
					<dim>1</dim>
					<dim>1</dim>
				</port>
				<port id="4" precision="FP32">
					<dim>1</dim>
					<dim>1</dim>
					<dim>1</dim>
					<dim>1</dim>
				</port>
			</input>
			<output>
				<port id="5" precision="FP32" names="//nncf_model_input_0|OUTPUT/FakeQuantize_output_0">
					<dim>-1</dim>
					<dim>3</dim>
					<dim>256</dim>
					<dim>128</dim>
				</port>
			</output>
		</layer>
		<layer id="6" name="/conv1/conv/pre_ops.0/op/Constant" type="Const" version="opset1">
			<data element_type="i8" shape="16, 3, 7, 7" offset="8" size="2352" />
			<output>
				<port id="0" precision="I8">
					<dim>16</dim>
					<dim>3</dim>
					<dim>7</dim>
					<dim>7</dim>
				</port>
			</output>
		</layer>
		<layer id="7" name="Convert_42492" type="Convert" version="opset1">
			<data destination_type="f32" />
			<input>
				<port id="0" precision="I8">
					<dim>16</dim>
					<dim>3</dim>
					<dim>7</dim>
					<dim>7</dim>
				</port>
			</input>
			<output>
				<port id="1" precision="FP32">
					<dim>16</dim>
					<dim>3</dim>
					<dim>7</dim>
					<dim>7</dim>
				</port>
			</output>
		</layer>
		<layer id="8" name="Constant_42390" type="Const" version="opset1">
			<data element_type="f32" shape="16, 1, 1, 1" offset="2360" size="64" />
			<output>
				<port id="0" precision="FP32">
					<dim>16</dim>
					<dim>1</dim>
					<dim>1</dim>
					<dim>1</dim>
				</port>
			</output>
		</layer>
		<layer id="9" name="Multiply_35070" type="Multiply" version="opset1">
			<data auto_broadcast="numpy" />
			<input>
				<port id="0" precision="FP32">
					<dim>16</dim>
					<dim>3</dim>
					<dim>7</dim>
					<dim>7</dim>
				</port>
				<port id="1" precision="FP32">
					<dim>16</dim>
					<dim>1</dim>
					<dim>1</dim>
					<dim>1</dim>
				</port>
			</input>
			<output>
				<port id="2" precision="FP32">
					<dim>16</dim>
					<dim>3</dim>
					<dim>7</dim>
					<dim>7</dim>
				</port>
			</output>
		</layer>
		<layer id="10" name="Multiply_34503" type="Convolution" version="opset1">
			<data strides="2, 2" dilations="1, 1" pads_begin="3, 3" pads_end="3, 3" auto_pad="explicit" />
			<input>
				<port id="0" precision="FP32">
					<dim>-1</dim>
					<dim>3</dim>
					<dim>256</dim>
					<dim>128</dim>
				</port>
				<port id="1" precision="FP32">
					<dim>16</dim>
					<dim>3</dim>
					<dim>7</dim>
					<dim>7</dim>
				</port>
			</input>
			<output>
				<port id="2" precision="FP32">
					<dim>-1</dim>
					<dim>16</dim>
					<dim>128</dim>
					<dim>64</dim>
				</port>
			</output>
		</layer>
		<layer id="11" name="Constant_34508" type="Const" version="opset1">
			<data element_type="f32" shape="1, 16, 1, 1" offset="2424" size="64" />
			<output>
				<port id="0" precision="FP32">
					<dim>1</dim>
					<dim>16</dim>
					<dim>1</dim>
					<dim>1</dim>
				</port>
			</output>
		</layer>
		<layer id="12" name="/conv1/bn/BatchNormalization" type="Add" version="opset1">
			<data auto_broadcast="numpy" />
			<input>
				<port id="0" precision="FP32">
					<dim>-1</dim>
					<dim>16</dim>
					<dim>128</dim>
					<dim>64</dim>
				</port>
				<port id="1" precision="FP32">
					<dim>1</dim>
					<dim>16</dim>
					<dim>1</dim>
					<dim>1</dim>
				</port>
			</input>
			<output>
				<port id="2" precision="FP32" names="/conv1/bn/BatchNormalization_output_0">
					<dim>-1</dim>
					<dim>16</dim>
					<dim>128</dim>
					<dim>64</dim>
				</port>
			</output>
		</layer>
		<layer id="13" name="Constant_36451" type="Const" version="opset1">
			<data element_type="f32" shape="1, 1, 1, 1" offset="2488" size="4" />
			<output>
				<port id="0" precision="FP32">
					<dim>1</dim>
					<dim>1</dim>
					<dim>1</dim>
					<dim>1</dim>
				</port>
			</output>
		</layer>
		<layer id="14" name="Constant_36452" type="Const" version="opset1">
			<data element_type="f32" shape="1, 1, 1, 1" offset="2492" size="4" />
			<output>
				<port id="0" precision="FP32">
					<dim>1</dim>
					<dim>1</dim>
					<dim>1</dim>
					<dim>1</dim>
				</port>
			</output>
		</layer>
		<layer id="15" name="Constant_36453" type="Const" version="opset1">
			<data element_type="f32" shape="1, 1, 1, 1" offset="2488" size="4" />
			<output>
				<port id="0" precision="FP32">
					<dim>1</dim>
					<dim>1</dim>
					<dim>1</dim>
					<dim>1</dim>
				</port>
			</output>
		</layer>
		<layer id="16" name="Constant_36454" type="Const" version="opset1">
			<data element_type="f32" shape="1, 1, 1, 1" offset="2492" size="4" />
			<output>
				<port id="0" precision="FP32">
					<dim>1</dim>
					<dim>1</dim>
					<dim>1</dim>
					<dim>1</dim>
				</port>
			</output>
		</layer>
		<layer id="17" name="/conv1/relu/OSNet/ConvLayer[conv1]/ReLU[relu]/relu__0|OUTPUT/FakeQuantize" type="FakeQuantize" version="opset1">
			<data levels="256" auto_broadcast="numpy" />
			<input>
				<port id="0" precision="FP32">
					<dim>-1</dim>
					<dim>16</dim>
					<dim>128</dim>
					<dim>64</dim>
				</port>
				<port id="1" precision="FP32">
					<dim>1</dim>
					<dim>1</dim>
					<dim>1</dim>
					<dim>1</dim>
				</port>
				<port id="2" precision="FP32">
					<dim>1</dim>
					<dim>1</dim>
					<dim>1</dim>
					<dim>1</dim>
				</port>
				<port id="3" precision="FP32">
					<dim>1</dim>
					<dim>1</dim>
					<dim>1</dim>
					<dim>1</dim>
				</port>
				<port id="4" precision="FP32">
					<dim>1</dim>
					<dim>1</dim>
					<dim>1</dim>
					<dim>1</dim>
				</port>
			</input>
			<output>
				<port id="5" precision="FP32" names="/conv1/relu/OSNet/ConvLayer[conv1]/ReLU[relu]/relu__0|OUTPUT/FakeQuantize_output_0">
					<dim>-1</dim>
					<dim>16</dim>
					<dim>128</dim>
					<dim>64</dim>
				</port>
			</output>
		</layer>
		<layer id="18" name="/maxpool/MaxPool" type="MaxPool" version="opset8">
			<data strides="2, 2" dilations="1, 1" pads_begin="1, 1" pads_end="1, 1" kernel="3, 3" rounding_type="floor" auto_pad="explicit" index_element_type="i64" axis="0" />
			<input>
				<port id="0" precision="FP32">
					<dim>-1</dim>
					<dim>16</dim>
					<dim>128</dim>
					<dim>64</dim>
				</port>
			</input>
			<output>
				<port id="1" precision="FP32" names="/maxpool/MaxPool_output_0">
					<dim>-1</dim>
					<dim>16</dim>
					<dim>64</dim>
					<dim>32</dim>
				</port>
				<port id="2" precision="I64">
					<dim>-1</dim>
					<dim>16</dim>
					<dim>64</dim>
					<dim>32</dim>
				</port>
			</output>
		</layer>
		<layer id="19" name="/conv2/conv2.0/conv1/conv/pre_ops.0/op/Constant" type="Const" version="opset1">
			<data element_type="i8" shape="16, 16, 1, 1" offset="2496" size="256" />
			<output>
				<port id="0" precision="I8">
					<dim>16</dim>
					<dim>16</dim>
					<dim>1</dim>
					<dim>1</dim>
				</port>
			</output>
		</layer>
		<layer id="20" name="Convert_42646" type="Convert" version="opset1">
			<data destination_type="f32" />
			<input>
				<port id="0" precision="I8">
					<dim>16</dim>
					<dim>16</dim>
					<dim>1</dim>
					<dim>1</dim>
				</port>
			</input>
			<output>
				<port id="1" precision="FP32">
					<dim>16</dim>
					<dim>16</dim>
					<dim>1</dim>
					<dim>1</dim>
				</port>
			</output>
		</layer>
		<layer id="21" name="Constant_42544" type="Const" version="opset1">
			<data element_type="f32" shape="16, 1, 1, 1" offset="2752" size="64" />
			<output>
				<port id="0" precision="FP32">
					<dim>16</dim>
					<dim>1</dim>
					<dim>1</dim>
					<dim>1</dim>
				</port>
			</output>
		</layer>
		<layer id="22" name="Multiply_35076" type="Multiply" version="opset1">
			<data auto_broadcast="numpy" />
			<input>
				<port id="0" precision="FP32">
					<dim>16</dim>
					<dim>16</dim>
					<dim>1</dim>
					<dim>1</dim>
				</port>
				<port id="1" precision="FP32">
					<dim>16</dim>
					<dim>1</dim>
					<dim>1</dim>
					<dim>1</dim>
				</port>
			</input>
			<output>
				<port id="2" precision="FP32">
					<dim>16</dim>
					<dim>16</dim>
					<dim>1</dim>
					<dim>1</dim>
				</port>
			</output>
		</layer>
		<layer id="23" name="Multiply_34510" type="Convolution" version="opset1">
			<data strides="1, 1" dilations="1, 1" pads_begin="0, 0" pads_end="0, 0" auto_pad="explicit" />
			<input>
				<port id="0" precision="FP32">
					<dim>-1</dim>
					<dim>16</dim>
					<dim>64</dim>
					<dim>32</dim>
				</port>
				<port id="1" precision="FP32">
					<dim>16</dim>
					<dim>16</dim>
					<dim>1</dim>
					<dim>1</dim>
				</port>
			</input>
			<output>
				<port id="2" precision="FP32">
					<dim>-1</dim>
					<dim>16</dim>
					<dim>64</dim>
					<dim>32</dim>
				</port>
			</output>
		</layer>
		<layer id="24" name="Constant_34515" type="Const" version="opset1">
			<data element_type="f32" shape="1, 16, 1, 1" offset="2816" size="64" />
			<output>
				<port id="0" precision="FP32">
					<dim>1</dim>
					<dim>16</dim>
					<dim>1</dim>
					<dim>1</dim>
				</port>
			</output>
		</layer>
		<layer id="25" name="/conv2/conv2.0/conv1/bn/BatchNormalization" type="Add" version="opset1">
			<data auto_broadcast="numpy" />
			<input>
				<port id="0" precision="FP32">
					<dim>-1</dim>
					<dim>16</dim>
					<dim>64</dim>
					<dim>32</dim>
				</port>
				<port id="1" precision="FP32">
					<dim>1</dim>
					<dim>16</dim>
					<dim>1</dim>
					<dim>1</dim>
				</port>
			</input>
			<output>
				<port id="2" precision="FP32" names="/conv2/conv2.0/conv1/bn/BatchNormalization_output_0">
					<dim>-1</dim>
					<dim>16</dim>
					<dim>64</dim>
					<dim>32</dim>
				</port>
			</output>
		</layer>
		<layer id="26" name="Constant_36455" type="Const" version="opset1">
			<data element_type="f32" shape="1, 1, 1, 1" offset="2488" size="4" />
			<output>
				<port id="0" precision="FP32">
					<dim>1</dim>
					<dim>1</dim>
					<dim>1</dim>
					<dim>1</dim>
				</port>
			</output>
		</layer>
		<layer id="27" name="Constant_36456" type="Const" version="opset1">
			<data element_type="f32" shape="1, 1, 1, 1" offset="2880" size="4" />
			<output>
				<port id="0" precision="FP32">
					<dim>1</dim>
					<dim>1</dim>
					<dim>1</dim>
					<dim>1</dim>
				</port>
			</output>
		</layer>
		<layer id="28" name="Constant_36457" type="Const" version="opset1">
			<data element_type="f32" shape="1, 1, 1, 1" offset="2488" size="4" />
			<output>
				<port id="0" precision="FP32">
					<dim>1</dim>
					<dim>1</dim>
					<dim>1</dim>
					<dim>1</dim>
				</port>
			</output>
		</layer>
		<layer id="29" name="Constant_36458" type="Const" version="opset1">
			<data element_type="f32" shape="1, 1, 1, 1" offset="2880" size="4" />
			<output>
				<port id="0" precision="FP32">
					<dim>1</dim>
					<dim>1</dim>
					<dim>1</dim>
					<dim>1</dim>
				</port>
			</output>
		</layer>
		<layer id="30" name="/conv2/conv2.0/conv1/relu/OSNet/Sequential[conv2]/OSBlock[0]/Conv1x1[conv1]/ReLU[relu]/relu__0|OUTPUT/FakeQuantize" type="FakeQuantize" version="opset1">
			<data levels="256" auto_broadcast="numpy" />
			<input>
				<port id="0" precision="FP32">
					<dim>-1</dim>
					<dim>16</dim>
					<dim>64</dim>
					<dim>32</dim>
				</port>
				<port id="1" precision="FP32">
					<dim>1</dim>
					<dim>1</dim>
					<dim>1</dim>
					<dim>1</dim>
				</port>
				<port id="2" precision="FP32">
					<dim>1</dim>
					<dim>1</dim>
					<dim>1</dim>
					<dim>1</dim>
				</port>
				<port id="3" precision="FP32">
					<dim>1</dim>
					<dim>1</dim>
					<dim>1</dim>
					<dim>1</dim>
				</port>
				<port id="4" precision="FP32">
					<dim>1</dim>
					<dim>1</dim>
					<dim>1</dim>
					<dim>1</dim>
				</port>
			</input>
			<output>
				<port id="5" precision="FP32" names="/conv2/conv2.0/conv1/relu/OSNet/Sequential[conv2]/OSBlock[0]/Conv1x1[conv1]/ReLU[relu]/relu__0|OUTPUT/FakeQuantize_output_0">
					<dim>-1</dim>
					<dim>16</dim>
					<dim>64</dim>
					<dim>32</dim>
				</port>
			</output>
		</layer>
		<layer id="31" name="/conv2/conv2.0/conv2a/conv1/pre_ops.0/op/Constant" type="Const" version="opset1">
			<data element_type="i8" shape="16, 16, 1, 1" offset="2884" size="256" />
			<output>
				<port id="0" precision="I8">
					<dim>16</dim>
					<dim>16</dim>
					<dim>1</dim>
					<dim>1</dim>
				</port>
			</output>
		</layer>
		<layer id="32" name="Convert_42800" type="Convert" version="opset1">
			<data destination_type="f32" />
			<input>
				<port id="0" precision="I8">
					<dim>16</dim>
					<dim>16</dim>
					<dim>1</dim>
					<dim>1</dim>
				</port>
			</input>
			<output>
				<port id="1" precision="FP32">
					<dim>16</dim>
					<dim>16</dim>
					<dim>1</dim>
					<dim>1</dim>
				</port>
			</output>
		</layer>
		<layer id="33" name="Constant_42698" type="Const" version="opset1">
			<data element_type="f32" shape="16, 1, 1, 1" offset="3140" size="64" />
			<output>
				<port id="0" precision="FP32">
					<dim>16</dim>
					<dim>1</dim>
					<dim>1</dim>
					<dim>1</dim>
				</port>
			</output>
		</layer>
		<layer id="34" name="/conv2/conv2.0/conv2a/conv1/pre_ops.0/op/FakeQuantize" type="Multiply" version="opset1">
			<data auto_broadcast="numpy" />
			<input>
				<port id="0" precision="FP32">
					<dim>16</dim>
					<dim>16</dim>
					<dim>1</dim>
					<dim>1</dim>
				</port>
				<port id="1" precision="FP32">
					<dim>16</dim>
					<dim>1</dim>
					<dim>1</dim>
					<dim>1</dim>
				</port>
			</input>
			<output>
				<port id="2" precision="FP32" names="/conv2/conv2.0/conv2a/conv1/pre_ops.0/op/FakeQuantize_output_0">
					<dim>16</dim>
					<dim>16</dim>
					<dim>1</dim>
					<dim>1</dim>
				</port>
			</output>
		</layer>
		<layer id="35" name="/conv2/conv2.0/conv2a/conv1/Conv" type="Convolution" version="opset1">
			<data strides="1, 1" dilations="1, 1" pads_begin="0, 0" pads_end="0, 0" auto_pad="explicit" />
			<input>
				<port id="0" precision="FP32">
					<dim>-1</dim>
					<dim>16</dim>
					<dim>64</dim>
					<dim>32</dim>
				</port>
				<port id="1" precision="FP32">
					<dim>16</dim>
					<dim>16</dim>
					<dim>1</dim>
					<dim>1</dim>
				</port>
			</input>
			<output>
				<port id="2" precision="FP32" names="/conv2/conv2.0/conv2a/conv1/Conv_output_0">
					<dim>-1</dim>
					<dim>16</dim>
					<dim>64</dim>
					<dim>32</dim>
				</port>
			</output>
		</layer>
		<layer id="36" name="/conv2/conv2.0/conv2a/conv1/OSNet/Sequential[conv2]/OSBlock[0]/LightConv3x3[conv2a]/NNCFConv2d[conv1]/conv2d_0|OUTPUT/Constant" type="Const" version="opset1">
			<data element_type="f32" shape="1, 16, 1, 1" offset="3204" size="64" />
			<output>
				<port id="0" precision="FP32" names="/conv2/conv2.0/conv2a/conv1/OSNet/Sequential[conv2]/OSBlock[0]/LightConv3x3[conv2a]/NNCFConv2d[conv1]/conv2d_0|OUTPUT/Constant_output_0">
					<dim>1</dim>
					<dim>16</dim>
					<dim>1</dim>
					<dim>1</dim>
				</port>
			</output>
		</layer>
		<layer id="37" name="/conv2/conv2.0/conv2a/conv1/OSNet/Sequential[conv2]/OSBlock[0]/LightConv3x3[conv2a]/NNCFConv2d[conv1]/conv2d_0|OUTPUT/Constant_1" type="Const" version="opset1">
			<data element_type="f32" shape="1, 16, 1, 1" offset="3268" size="64" />
			<output>
				<port id="0" precision="FP32" names="/conv2/conv2.0/conv2a/conv1/OSNet/Sequential[conv2]/OSBlock[0]/LightConv3x3[conv2a]/NNCFConv2d[conv1]/conv2d_0|OUTPUT/Constant_1_output_0">
					<dim>1</dim>
					<dim>16</dim>
					<dim>1</dim>
					<dim>1</dim>
				</port>
			</output>
		</layer>
		<layer id="38" name="/conv2/conv2.0/conv2a/conv1/OSNet/Sequential[conv2]/OSBlock[0]/LightConv3x3[conv2a]/NNCFConv2d[conv1]/conv2d_0|OUTPUT/FakeQuantize" type="FakeQuantize" version="opset1">
			<data levels="256" auto_broadcast="numpy" />
			<input>
				<port id="0" precision="FP32">
					<dim>-1</dim>
					<dim>16</dim>
					<dim>64</dim>
					<dim>32</dim>
				</port>
				<port id="1" precision="FP32">
					<dim>1</dim>
					<dim>16</dim>
					<dim>1</dim>
					<dim>1</dim>
				</port>
				<port id="2" precision="FP32">
					<dim>1</dim>
					<dim>16</dim>
					<dim>1</dim>
					<dim>1</dim>
				</port>
				<port id="3" precision="FP32">
					<dim>1</dim>
					<dim>16</dim>
					<dim>1</dim>
					<dim>1</dim>
				</port>
				<port id="4" precision="FP32">
					<dim>1</dim>
					<dim>16</dim>
					<dim>1</dim>
					<dim>1</dim>
				</port>
			</input>
			<output>
				<port id="5" precision="FP32" names="/conv2/conv2.0/conv2a/conv1/OSNet/Sequential[conv2]/OSBlock[0]/LightConv3x3[conv2a]/NNCFConv2d[conv1]/conv2d_0|OUTPUT/FakeQuantize_output_0">
					<dim>-1</dim>
					<dim>16</dim>
					<dim>64</dim>
					<dim>32</dim>
				</port>
			</output>
		</layer>
		<layer id="39" name="/conv2/conv2.0/conv2a/conv2/pre_ops.0/op/Constant" type="Const" version="opset1">
			<data element_type="i8" shape="16, 1, 3, 3" offset="3332" size="144" />
			<output>
				<port id="0" precision="I8">
					<dim>16</dim>
					<dim>1</dim>
					<dim>3</dim>
					<dim>3</dim>
				</port>
			</output>
		</layer>
		<layer id="40" name="Convert_42954" type="Convert" version="opset1">
			<data destination_type="f32" />
			<input>
				<port id="0" precision="I8">
					<dim>16</dim>
					<dim>1</dim>
					<dim>3</dim>
					<dim>3</dim>
				</port>
			</input>
			<output>
				<port id="1" precision="FP32">
					<dim>16</dim>
					<dim>1</dim>
					<dim>3</dim>
					<dim>3</dim>
				</port>
			</output>
		</layer>
		<layer id="41" name="Constant_42852" type="Const" version="opset1">
			<data element_type="f32" shape="16, 1, 1, 1" offset="3476" size="64" />
			<output>
				<port id="0" precision="FP32">
					<dim>16</dim>
					<dim>1</dim>
					<dim>1</dim>
					<dim>1</dim>
				</port>
			</output>
		</layer>
		<layer id="42" name="/conv2/conv2.0/conv2a/conv2/pre_ops.0/op/FakeQuantize" type="Multiply" version="opset1">
			<data auto_broadcast="numpy" />
			<input>
				<port id="0" precision="FP32">
					<dim>16</dim>
					<dim>1</dim>
					<dim>3</dim>
					<dim>3</dim>
				</port>
				<port id="1" precision="FP32">
					<dim>16</dim>
					<dim>1</dim>
					<dim>1</dim>
					<dim>1</dim>
				</port>
			</input>
			<output>
				<port id="2" precision="FP32" names="/conv2/conv2.0/conv2a/conv2/pre_ops.0/op/FakeQuantize_output_0">
					<dim>16</dim>
					<dim>1</dim>
					<dim>3</dim>
					<dim>3</dim>
				</port>
			</output>
		</layer>
		<layer id="43" name="Reshape_35079" type="Const" version="opset1">
			<data element_type="f32" shape="16, 1, 1, 1" offset="3540" size="64" />
			<output>
				<port id="0" precision="FP32">
					<dim>16</dim>
					<dim>1</dim>
					<dim>1</dim>
					<dim>1</dim>
				</port>
			</output>
		</layer>
		<layer id="44" name="Multiply_35082" type="Multiply" version="opset1">
			<data auto_broadcast="numpy" />
			<input>
				<port id="0" precision="FP32">
					<dim>16</dim>
					<dim>1</dim>
					<dim>3</dim>
					<dim>3</dim>
				</port>
				<port id="1" precision="FP32">
					<dim>16</dim>
					<dim>1</dim>
					<dim>1</dim>
					<dim>1</dim>
				</port>
			</input>
			<output>
				<port id="2" precision="FP32">
					<dim>16</dim>
					<dim>1</dim>
					<dim>3</dim>
					<dim>3</dim>
				</port>
			</output>
		</layer>
		<layer id="45" name="Constant_14037" type="Const" version="opset1">
			<data element_type="i64" shape="1" offset="3604" size="8" />
			<output>
				<port id="0" precision="I64">
					<dim>1</dim>
				</port>
			</output>
		</layer>
		<layer id="46" name="ShapeOf_14038" type="ShapeOf" version="opset3">
			<data output_type="i64" />
			<input>
				<port id="0" precision="FP32">
					<dim>16</dim>
					<dim>1</dim>
					<dim>3</dim>
					<dim>3</dim>
				</port>
			</input>
			<output>
				<port id="1" precision="I64">
					<dim>4</dim>
				</port>
			</output>
		</layer>
		<layer id="47" name="Constant_14035" type="Const" version="opset1">
			<data element_type="i64" shape="" offset="3612" size="8" />
			<output>
				<port id="0" precision="I64" />
			</output>
		</layer>
		<layer id="48" name="Constant_14036" type="Const" version="opset1">
			<data element_type="i64" shape="2" offset="3620" size="16" />
			<output>
				<port id="0" precision="I64">
					<dim>2</dim>
				</port>
			</output>
		</layer>
		<layer id="49" name="VariadicSplit_14039" type="VariadicSplit" version="opset1">
			<input>
				<port id="0" precision="I64">
					<dim>4</dim>
				</port>
				<port id="1" precision="I64" />
				<port id="2" precision="I64">
					<dim>2</dim>
				</port>
			</input>
			<output>
				<port id="3" precision="I64">
					<dim>1</dim>
				</port>
				<port id="4" precision="I64">
					<dim>3</dim>
				</port>
			</output>
		</layer>
		<layer id="50" name="Divide_14040" type="Divide" version="opset1">
			<data auto_broadcast="numpy" m_pythondiv="true" />
			<input>
				<port id="0" precision="I64">
					<dim>1</dim>
				</port>
				<port id="1" precision="I64">
					<dim>1</dim>
				</port>
			</input>
			<output>
				<port id="2" precision="I64">
					<dim>1</dim>
				</port>
			</output>
		</layer>
		<layer id="51" name="Concat_14041" type="Concat" version="opset1">
			<data axis="0" />
			<input>
				<port id="0" precision="I64">
					<dim>1</dim>
				</port>
				<port id="1" precision="I64">
					<dim>1</dim>
				</port>
				<port id="2" precision="I64">
					<dim>3</dim>
				</port>
			</input>
			<output>
				<port id="3" precision="I64">
					<dim>5</dim>
				</port>
			</output>
		</layer>
		<layer id="52" name="Reshape_14042" type="Reshape" version="opset1">
			<data special_zero="false" />
			<input>
				<port id="0" precision="FP32">
					<dim>16</dim>
					<dim>1</dim>
					<dim>3</dim>
					<dim>3</dim>
				</port>
				<port id="1" precision="I64">
					<dim>5</dim>
				</port>
			</input>
			<output>
				<port id="2" precision="FP32">
					<dim>16</dim>
					<dim>1</dim>
					<dim>1</dim>
					<dim>3</dim>
					<dim>3</dim>
				</port>
			</output>
		</layer>
		<layer id="53" name="Multiply_34517" type="GroupConvolution" version="opset1">
			<data strides="1, 1" pads_begin="1, 1" pads_end="1, 1" dilations="1, 1" auto_pad="explicit" />
			<input>
				<port id="0" precision="FP32">
					<dim>-1</dim>
					<dim>16</dim>
					<dim>64</dim>
					<dim>32</dim>
				</port>
				<port id="1" precision="FP32">
					<dim>16</dim>
					<dim>1</dim>
					<dim>1</dim>
					<dim>3</dim>
					<dim>3</dim>
				</port>
			</input>
			<output>
				<port id="2" precision="FP32" names="/conv2/conv2.0/conv2a/conv2/Conv_output_0">
					<dim>-1</dim>
					<dim>16</dim>
					<dim>64</dim>
					<dim>32</dim>
				</port>
			</output>
		</layer>
		<layer id="54" name="Constant_34522" type="Const" version="opset1">
			<data element_type="f32" shape="1, 16, 1, 1" offset="3636" size="64" />
			<output>
				<port id="0" precision="FP32">
					<dim>1</dim>
					<dim>16</dim>
					<dim>1</dim>
					<dim>1</dim>
				</port>
			</output>
		</layer>
		<layer id="55" name="/conv2/conv2.0/conv2a/bn/BatchNormalization" type="Add" version="opset1">
			<data auto_broadcast="numpy" />
			<input>
				<port id="0" precision="FP32">
					<dim>-1</dim>
					<dim>16</dim>
					<dim>64</dim>
					<dim>32</dim>
				</port>
				<port id="1" precision="FP32">
					<dim>1</dim>
					<dim>16</dim>
					<dim>1</dim>
					<dim>1</dim>
				</port>
			</input>
			<output>
				<port id="2" precision="FP32" names="/conv2/conv2.0/conv2a/bn/BatchNormalization_output_0">
					<dim>-1</dim>
					<dim>16</dim>
					<dim>64</dim>
					<dim>32</dim>
				</port>
			</output>
		</layer>
		<layer id="56" name="Constant_36459" type="Const" version="opset1">
			<data element_type="f32" shape="1, 1, 1, 1" offset="2488" size="4" />
			<output>
				<port id="0" precision="FP32">
					<dim>1</dim>
					<dim>1</dim>
					<dim>1</dim>
					<dim>1</dim>
				</port>
			</output>
		</layer>
		<layer id="57" name="Constant_36460" type="Const" version="opset1">
			<data element_type="f32" shape="1, 1, 1, 1" offset="3700" size="4" />
			<output>
				<port id="0" precision="FP32">
					<dim>1</dim>
					<dim>1</dim>
					<dim>1</dim>
					<dim>1</dim>
				</port>
			</output>
		</layer>
		<layer id="58" name="Constant_36461" type="Const" version="opset1">
			<data element_type="f32" shape="1, 1, 1, 1" offset="2488" size="4" />
			<output>
				<port id="0" precision="FP32">
					<dim>1</dim>
					<dim>1</dim>
					<dim>1</dim>
					<dim>1</dim>
				</port>
			</output>
		</layer>
		<layer id="59" name="Constant_36462" type="Const" version="opset1">
			<data element_type="f32" shape="1, 1, 1, 1" offset="3700" size="4" />
			<output>
				<port id="0" precision="FP32">
					<dim>1</dim>
					<dim>1</dim>
					<dim>1</dim>
					<dim>1</dim>
				</port>
			</output>
		</layer>
		<layer id="60" name="/conv2/conv2.0/conv2a/relu/OSNet/Sequential[conv2]/OSBlock[0]/LightConv3x3[conv2a]/ReLU[relu]/relu__0|OUTPUT/FakeQuantize" type="FakeQuantize" version="opset1">
			<data levels="256" auto_broadcast="numpy" />
			<input>
				<port id="0" precision="FP32">
					<dim>-1</dim>
					<dim>16</dim>
					<dim>64</dim>
					<dim>32</dim>
				</port>
				<port id="1" precision="FP32">
					<dim>1</dim>
					<dim>1</dim>
					<dim>1</dim>
					<dim>1</dim>
				</port>
				<port id="2" precision="FP32">
					<dim>1</dim>
					<dim>1</dim>
					<dim>1</dim>
					<dim>1</dim>
				</port>
				<port id="3" precision="FP32">
					<dim>1</dim>
					<dim>1</dim>
					<dim>1</dim>
					<dim>1</dim>
				</port>
				<port id="4" precision="FP32">
					<dim>1</dim>
					<dim>1</dim>
					<dim>1</dim>
					<dim>1</dim>
				</port>
			</input>
			<output>
				<port id="5" precision="FP32" names="/conv2/conv2.0/conv2a/relu/OSNet/Sequential[conv2]/OSBlock[0]/LightConv3x3[conv2a]/ReLU[relu]/relu__0|OUTPUT/FakeQuantize_output_0">
					<dim>-1</dim>
					<dim>16</dim>
					<dim>64</dim>
					<dim>32</dim>
				</port>
			</output>
		</layer>
		<layer id="61" name="Range_14697" type="Const" version="opset1">
			<data element_type="i64" shape="2" offset="3704" size="16" />
			<output>
				<port id="0" precision="I64">
					<dim>2</dim>
				</port>
			</output>
		</layer>
		<layer id="62" name="/conv2/conv2.0/gate/global_avgpool/GlobalAveragePool" type="ReduceMean" version="opset1">
			<data keep_dims="true" />
			<input>
				<port id="0" precision="FP32">
					<dim>-1</dim>
					<dim>16</dim>
					<dim>64</dim>
					<dim>32</dim>
				</port>
				<port id="1" precision="I64">
					<dim>2</dim>
				</port>
			</input>
			<output>
				<port id="2" precision="FP32" names="/conv2/conv2.0/gate/global_avgpool/GlobalAveragePool_output_0">
					<dim>-1</dim>
					<dim>16</dim>
					<dim>1</dim>
					<dim>1</dim>
				</port>
			</output>
		</layer>
		<layer id="63" name="Constant_36463" type="Const" version="opset1">
			<data element_type="f32" shape="1, 1, 1, 1" offset="2488" size="4" />
			<output>
				<port id="0" precision="FP32">
					<dim>1</dim>
					<dim>1</dim>
					<dim>1</dim>
					<dim>1</dim>
				</port>
			</output>
		</layer>
		<layer id="64" name="Constant_36464" type="Const" version="opset1">
			<data element_type="f32" shape="1, 1, 1, 1" offset="3720" size="4" />
			<output>
				<port id="0" precision="FP32">
					<dim>1</dim>
					<dim>1</dim>
					<dim>1</dim>
					<dim>1</dim>
				</port>
			</output>
		</layer>
		<layer id="65" name="Constant_36465" type="Const" version="opset1">
			<data element_type="f32" shape="1, 1, 1, 1" offset="2488" size="4" />
			<output>
				<port id="0" precision="FP32">
					<dim>1</dim>
					<dim>1</dim>
					<dim>1</dim>
					<dim>1</dim>
				</port>
			</output>
		</layer>
		<layer id="66" name="Constant_36466" type="Const" version="opset1">
			<data element_type="f32" shape="1, 1, 1, 1" offset="3720" size="4" />
			<output>
				<port id="0" precision="FP32">
					<dim>1</dim>
					<dim>1</dim>
					<dim>1</dim>
					<dim>1</dim>
				</port>
			</output>
		</layer>
		<layer id="67" name="/conv2/conv2.0/gate/global_avgpool/OSNet/Sequential[conv2]/OSBlock[0]/ChannelGate[gate]/AdaptiveAvgPool2d[global_avgpool]/adaptive_avg_pool2d_0|OUTPUT/FakeQuantize" type="FakeQuantize" version="opset1">
			<data levels="256" auto_broadcast="numpy" />
			<input>
				<port id="0" precision="FP32">
					<dim>-1</dim>
					<dim>16</dim>
					<dim>1</dim>
					<dim>1</dim>
				</port>
				<port id="1" precision="FP32">
					<dim>1</dim>
					<dim>1</dim>
					<dim>1</dim>
					<dim>1</dim>
				</port>
				<port id="2" precision="FP32">
					<dim>1</dim>
					<dim>1</dim>
					<dim>1</dim>
					<dim>1</dim>
				</port>
				<port id="3" precision="FP32">
					<dim>1</dim>
					<dim>1</dim>
					<dim>1</dim>
					<dim>1</dim>
				</port>
				<port id="4" precision="FP32">
					<dim>1</dim>
					<dim>1</dim>
					<dim>1</dim>
					<dim>1</dim>
				</port>
			</input>
			<output>
				<port id="5" precision="FP32" names="/conv2/conv2.0/gate/global_avgpool/OSNet/Sequential[conv2]/OSBlock[0]/ChannelGate[gate]/AdaptiveAvgPool2d[global_avgpool]/adaptive_avg_pool2d_0|OUTPUT/FakeQuantize_output_0">
					<dim>-1</dim>
					<dim>16</dim>
					<dim>1</dim>
					<dim>1</dim>
				</port>
			</output>
		</layer>
		<layer id="68" name="/conv2/conv2.0/gate/fc1/pre_ops.0/op/Constant" type="Const" version="opset1">
			<data element_type="i8" shape="1, 16, 1, 1" offset="3724" size="16" />
			<output>
				<port id="0" precision="I8">
					<dim>1</dim>
					<dim>16</dim>
					<dim>1</dim>
					<dim>1</dim>
				</port>
			</output>
		</layer>
		<layer id="69" name="Convert_43108" type="Convert" version="opset1">
			<data destination_type="f32" />
			<input>
				<port id="0" precision="I8">
					<dim>1</dim>
					<dim>16</dim>
					<dim>1</dim>
					<dim>1</dim>
				</port>
			</input>
			<output>
				<port id="1" precision="FP32">
					<dim>1</dim>
					<dim>16</dim>
					<dim>1</dim>
					<dim>1</dim>
				</port>
			</output>
		</layer>
		<layer id="70" name="Constant_43006" type="Const" version="opset1">
			<data element_type="f32" shape="1, 1, 1, 1" offset="3740" size="4" />
			<output>
				<port id="0" precision="FP32">
					<dim>1</dim>
					<dim>1</dim>
					<dim>1</dim>
					<dim>1</dim>
				</port>
			</output>
		</layer>
		<layer id="71" name="/conv2/conv2.0/gate/fc1/pre_ops.0/op/FakeQuantize" type="Multiply" version="opset1">
			<data auto_broadcast="numpy" />
			<input>
				<port id="0" precision="FP32">
					<dim>1</dim>
					<dim>16</dim>
					<dim>1</dim>
					<dim>1</dim>
				</port>
				<port id="1" precision="FP32">
					<dim>1</dim>
					<dim>1</dim>
					<dim>1</dim>
					<dim>1</dim>
				</port>
			</input>
			<output>
				<port id="2" precision="FP32" names="/conv2/conv2.0/gate/fc1/pre_ops.0/op/FakeQuantize_output_0">
					<dim>1</dim>
					<dim>16</dim>
					<dim>1</dim>
					<dim>1</dim>
				</port>
			</output>
		</layer>
		<layer id="72" name="/conv2/conv2.0/gate/fc1/Conv/WithoutBiases" type="Convolution" version="opset1">
			<data strides="1, 1" dilations="1, 1" pads_begin="0, 0" pads_end="0, 0" auto_pad="explicit" />
			<input>
				<port id="0" precision="FP32">
					<dim>-1</dim>
					<dim>16</dim>
					<dim>1</dim>
					<dim>1</dim>
				</port>
				<port id="1" precision="FP32">
					<dim>1</dim>
					<dim>16</dim>
					<dim>1</dim>
					<dim>1</dim>
				</port>
			</input>
			<output>
				<port id="2" precision="FP32">
					<dim>-1</dim>
					<dim>1</dim>
					<dim>1</dim>
					<dim>1</dim>
				</port>
			</output>
		</layer>
		<layer id="73" name="Constant_36179" type="Const" version="opset1">
			<data element_type="f32" shape="1, 1, 1, 1" offset="3744" size="4" />
			<output>
				<port id="0" precision="FP32">
					<dim>1</dim>
					<dim>1</dim>
					<dim>1</dim>
					<dim>1</dim>
				</port>
			</output>
		</layer>
		<layer id="74" name="Constant_36181" type="Const" version="opset1">
			<data element_type="f32" shape="1, 1, 1, 1" offset="3748" size="4" />
			<output>
				<port id="0" precision="FP32">
					<dim>1</dim>
					<dim>1</dim>
					<dim>1</dim>
					<dim>1</dim>
				</port>
			</output>
		</layer>
		<layer id="75" name="Constant_36467" type="Const" version="opset1">
			<data element_type="f32" shape="1, 1, 1, 1" offset="2488" size="4" />
			<output>
				<port id="0" precision="FP32">
					<dim>1</dim>
					<dim>1</dim>
					<dim>1</dim>
					<dim>1</dim>
				</port>
			</output>
		</layer>
		<layer id="76" name="Constant_36468" type="Const" version="opset1">
			<data element_type="f32" shape="1, 1, 1, 1" offset="3752" size="4" />
			<output>
				<port id="0" precision="FP32">
					<dim>1</dim>
					<dim>1</dim>
					<dim>1</dim>
					<dim>1</dim>
				</port>
			</output>
		</layer>
		<layer id="77" name="/conv2/conv2.0/gate/relu/OSNet/Sequential[conv2]/OSBlock[0]/ChannelGate[gate]/ReLU[relu]/relu__0|OUTPUT/FakeQuantize" type="FakeQuantize" version="opset1">
			<data levels="256" auto_broadcast="numpy" />
			<input>
				<port id="0" precision="FP32">
					<dim>-1</dim>
					<dim>1</dim>
					<dim>1</dim>
					<dim>1</dim>
				</port>
				<port id="1" precision="FP32">
					<dim>1</dim>
					<dim>1</dim>
					<dim>1</dim>
					<dim>1</dim>
				</port>
				<port id="2" precision="FP32">
					<dim>1</dim>
					<dim>1</dim>
					<dim>1</dim>
					<dim>1</dim>
				</port>
				<port id="3" precision="FP32">
					<dim>1</dim>
					<dim>1</dim>
					<dim>1</dim>
					<dim>1</dim>
				</port>
				<port id="4" precision="FP32">
					<dim>1</dim>
					<dim>1</dim>
					<dim>1</dim>
					<dim>1</dim>
				</port>
			</input>
			<output>
				<port id="5" precision="FP32" names="/conv2/conv2.0/gate/relu/OSNet/Sequential[conv2]/OSBlock[0]/ChannelGate[gate]/ReLU[relu]/relu__0|OUTPUT/FakeQuantize_output_0">
					<dim>-1</dim>
					<dim>1</dim>
					<dim>1</dim>
					<dim>1</dim>
				</port>
			</output>
		</layer>
		<layer id="78" name="/conv2/conv2.0/gate/fc2/pre_ops.0/op/Constant" type="Const" version="opset1">
			<data element_type="i8" shape="16, 1, 1, 1" offset="3756" size="16" />
			<output>
				<port id="0" precision="I8">
					<dim>16</dim>
					<dim>1</dim>
					<dim>1</dim>
					<dim>1</dim>
				</port>
			</output>
		</layer>
		<layer id="79" name="Convert_43262" type="Convert" version="opset1">
			<data destination_type="f32" />
			<input>
				<port id="0" precision="I8">
					<dim>16</dim>
					<dim>1</dim>
					<dim>1</dim>
					<dim>1</dim>
				</port>
			</input>
			<output>
				<port id="1" precision="FP32">
					<dim>16</dim>
					<dim>1</dim>
					<dim>1</dim>
					<dim>1</dim>
				</port>
			</output>
		</layer>
		<layer id="80" name="Constant_43160" type="Const" version="opset1">
			<data element_type="f32" shape="16, 1, 1, 1" offset="3772" size="64" />
			<output>
				<port id="0" precision="FP32">
					<dim>16</dim>
					<dim>1</dim>
					<dim>1</dim>
					<dim>1</dim>
				</port>
			</output>
		</layer>
		<layer id="81" name="/conv2/conv2.0/gate/fc2/pre_ops.0/op/FakeQuantize" type="Multiply" version="opset1">
			<data auto_broadcast="numpy" />
			<input>
				<port id="0" precision="FP32">
					<dim>16</dim>
					<dim>1</dim>
					<dim>1</dim>
					<dim>1</dim>
				</port>
				<port id="1" precision="FP32">
					<dim>16</dim>
					<dim>1</dim>
					<dim>1</dim>
					<dim>1</dim>
				</port>
			</input>
			<output>
				<port id="2" precision="FP32" names="/conv2/conv2.0/gate/fc2/pre_ops.0/op/FakeQuantize_output_0">
					<dim>16</dim>
					<dim>1</dim>
					<dim>1</dim>
					<dim>1</dim>
				</port>
			</output>
		</layer>
		<layer id="82" name="/conv2/conv2.0/gate/fc2/Conv/WithoutBiases" type="Convolution" version="opset1">
			<data strides="1, 1" dilations="1, 1" pads_begin="0, 0" pads_end="0, 0" auto_pad="explicit" />
			<input>
				<port id="0" precision="FP32">
					<dim>-1</dim>
					<dim>1</dim>
					<dim>1</dim>
					<dim>1</dim>
				</port>
				<port id="1" precision="FP32">
					<dim>16</dim>
					<dim>1</dim>
					<dim>1</dim>
					<dim>1</dim>
				</port>
			</input>
			<output>
				<port id="2" precision="FP32">
					<dim>-1</dim>
					<dim>16</dim>
					<dim>1</dim>
					<dim>1</dim>
				</port>
			</output>
		</layer>
		<layer id="83" name="Reshape_14740" type="Const" version="opset1">
			<data element_type="f32" shape="1, 16, 1, 1" offset="3836" size="64" />
			<output>
				<port id="0" precision="FP32">
					<dim>1</dim>
					<dim>16</dim>
					<dim>1</dim>
					<dim>1</dim>
				</port>
			</output>
		</layer>
		<layer id="84" name="/conv2/conv2.0/gate/fc2/Conv" type="Add" version="opset1">
			<data auto_broadcast="numpy" />
			<input>
				<port id="0" precision="FP32">
					<dim>-1</dim>
					<dim>16</dim>
					<dim>1</dim>
					<dim>1</dim>
				</port>
				<port id="1" precision="FP32">
					<dim>1</dim>
					<dim>16</dim>
					<dim>1</dim>
					<dim>1</dim>
				</port>
			</input>
			<output>
				<port id="2" precision="FP32" names="/conv2/conv2.0/gate/fc2/Conv_output_0">
					<dim>-1</dim>
					<dim>16</dim>
					<dim>1</dim>
					<dim>1</dim>
				</port>
			</output>
		</layer>
		<layer id="85" name="/conv2/conv2.0/gate/gate_activation/Sigmoid" type="Sigmoid" version="opset1">
			<input>
				<port id="0" precision="FP32">
					<dim>-1</dim>
					<dim>16</dim>
					<dim>1</dim>
					<dim>1</dim>
				</port>
			</input>
			<output>
				<port id="1" precision="FP32" names="/conv2/conv2.0/gate/gate_activation/Sigmoid_output_0">
					<dim>-1</dim>
					<dim>16</dim>
					<dim>1</dim>
					<dim>1</dim>
				</port>
			</output>
		</layer>
		<layer id="86" name="Constant_36469" type="Const" version="opset1">
			<data element_type="f32" shape="1, 1, 1, 1" offset="2488" size="4" />
			<output>
				<port id="0" precision="FP32">
					<dim>1</dim>
					<dim>1</dim>
					<dim>1</dim>
					<dim>1</dim>
				</port>
			</output>
		</layer>
		<layer id="87" name="Constant_36470" type="Const" version="opset1">
			<data element_type="f32" shape="1, 1, 1, 1" offset="3900" size="4" />
			<output>
				<port id="0" precision="FP32">
					<dim>1</dim>
					<dim>1</dim>
					<dim>1</dim>
					<dim>1</dim>
				</port>
			</output>
		</layer>
		<layer id="88" name="Constant_36471" type="Const" version="opset1">
			<data element_type="f32" shape="1, 1, 1, 1" offset="2488" size="4" />
			<output>
				<port id="0" precision="FP32">
					<dim>1</dim>
					<dim>1</dim>
					<dim>1</dim>
					<dim>1</dim>
				</port>
			</output>
		</layer>
		<layer id="89" name="Constant_36472" type="Const" version="opset1">
			<data element_type="f32" shape="1, 1, 1, 1" offset="3900" size="4" />
			<output>
				<port id="0" precision="FP32">
					<dim>1</dim>
					<dim>1</dim>
					<dim>1</dim>
					<dim>1</dim>
				</port>
			</output>
		</layer>
		<layer id="90" name="/conv2/conv2.0/gate/gate_activation/OSNet/Sequential[conv2]/OSBlock[0]/ChannelGate[gate]/Sigmoid[gate_activation]/sigmoid_0|OUTPUT/FakeQuantize" type="FakeQuantize" version="opset1">
			<data levels="256" auto_broadcast="numpy" />
			<input>
				<port id="0" precision="FP32">
					<dim>-1</dim>
					<dim>16</dim>
					<dim>1</dim>
					<dim>1</dim>
				</port>
				<port id="1" precision="FP32">
					<dim>1</dim>
					<dim>1</dim>
					<dim>1</dim>
					<dim>1</dim>
				</port>
				<port id="2" precision="FP32">
					<dim>1</dim>
					<dim>1</dim>
					<dim>1</dim>
					<dim>1</dim>
				</port>
				<port id="3" precision="FP32">
					<dim>1</dim>
					<dim>1</dim>
					<dim>1</dim>
					<dim>1</dim>
				</port>
				<port id="4" precision="FP32">
					<dim>1</dim>
					<dim>1</dim>
					<dim>1</dim>
					<dim>1</dim>
				</port>
			</input>
			<output>
				<port id="5" precision="FP32" names="/conv2/conv2.0/gate/gate_activation/OSNet/Sequential[conv2]/OSBlock[0]/ChannelGate[gate]/Sigmoid[gate_activation]/sigmoid_0|OUTPUT/FakeQuantize_output_0">
					<dim>-1</dim>
					<dim>16</dim>
					<dim>1</dim>
					<dim>1</dim>
				</port>
			</output>
		</layer>
		<layer id="91" name="/conv2/conv2.0/gate/Mul" type="Multiply" version="opset1">
			<data auto_broadcast="numpy" />
			<input>
				<port id="0" precision="FP32">
					<dim>-1</dim>
					<dim>16</dim>
					<dim>64</dim>
					<dim>32</dim>
				</port>
				<port id="1" precision="FP32">
					<dim>-1</dim>
					<dim>16</dim>
					<dim>1</dim>
					<dim>1</dim>
				</port>
			</input>
			<output>
				<port id="2" precision="FP32" names="/conv2/conv2.0/gate/Mul_output_0">
					<dim>-1</dim>
					<dim>16</dim>
					<dim>64</dim>
					<dim>32</dim>
				</port>
			</output>
		</layer>
		<layer id="92" name="Constant_36473" type="Const" version="opset1">
			<data element_type="f32" shape="1, 1, 1, 1" offset="2488" size="4" />
			<output>
				<port id="0" precision="FP32">
					<dim>1</dim>
					<dim>1</dim>
					<dim>1</dim>
					<dim>1</dim>
				</port>
			</output>
		</layer>
		<layer id="93" name="Constant_36474" type="Const" version="opset1">
			<data element_type="f32" shape="1, 1, 1, 1" offset="3904" size="4" />
			<output>
				<port id="0" precision="FP32">
					<dim>1</dim>
					<dim>1</dim>
					<dim>1</dim>
					<dim>1</dim>
				</port>
			</output>
		</layer>
		<layer id="94" name="Constant_36475" type="Const" version="opset1">
			<data element_type="f32" shape="1, 1, 1, 1" offset="2488" size="4" />
			<output>
				<port id="0" precision="FP32">
					<dim>1</dim>
					<dim>1</dim>
					<dim>1</dim>
					<dim>1</dim>
				</port>
			</output>
		</layer>
		<layer id="95" name="Constant_36476" type="Const" version="opset1">
			<data element_type="f32" shape="1, 1, 1, 1" offset="3904" size="4" />
			<output>
				<port id="0" precision="FP32">
					<dim>1</dim>
					<dim>1</dim>
					<dim>1</dim>
					<dim>1</dim>
				</port>
			</output>
		</layer>
		<layer id="96" name="/conv2/conv2.0/gate/OSNet/Sequential[conv2]/OSBlock[0]/ChannelGate[gate]/__mul___0|OUTPUT/FakeQuantize" type="FakeQuantize" version="opset1">
			<data levels="256" auto_broadcast="numpy" />
			<input>
				<port id="0" precision="FP32">
					<dim>-1</dim>
					<dim>16</dim>
					<dim>64</dim>
					<dim>32</dim>
				</port>
				<port id="1" precision="FP32">
					<dim>1</dim>
					<dim>1</dim>
					<dim>1</dim>
					<dim>1</dim>
				</port>
				<port id="2" precision="FP32">
					<dim>1</dim>
					<dim>1</dim>
					<dim>1</dim>
					<dim>1</dim>
				</port>
				<port id="3" precision="FP32">
					<dim>1</dim>
					<dim>1</dim>
					<dim>1</dim>
					<dim>1</dim>
				</port>
				<port id="4" precision="FP32">
					<dim>1</dim>
					<dim>1</dim>
					<dim>1</dim>
					<dim>1</dim>
				</port>
			</input>
			<output>
				<port id="5" precision="FP32" names="/conv2/conv2.0/gate/OSNet/Sequential[conv2]/OSBlock[0]/ChannelGate[gate]/__mul___0|OUTPUT/FakeQuantize_output_0">
					<dim>-1</dim>
					<dim>16</dim>
					<dim>64</dim>
					<dim>32</dim>
				</port>
			</output>
		</layer>
		<layer id="97" name="/conv2/conv2.0/conv2b/conv2b.0/conv1/pre_ops.0/op/Constant" type="Const" version="opset1">
			<data element_type="i8" shape="16, 16, 1, 1" offset="3908" size="256" />
			<output>
				<port id="0" precision="I8">
					<dim>16</dim>
					<dim>16</dim>
					<dim>1</dim>
					<dim>1</dim>
				</port>
			</output>
		</layer>
		<layer id="98" name="Convert_43416" type="Convert" version="opset1">
			<data destination_type="f32" />
			<input>
				<port id="0" precision="I8">
					<dim>16</dim>
					<dim>16</dim>
					<dim>1</dim>
					<dim>1</dim>
				</port>
			</input>
			<output>
				<port id="1" precision="FP32">
					<dim>16</dim>
					<dim>16</dim>
					<dim>1</dim>
					<dim>1</dim>
				</port>
			</output>
		</layer>
		<layer id="99" name="Constant_43314" type="Const" version="opset1">
			<data element_type="f32" shape="16, 1, 1, 1" offset="4164" size="64" />
			<output>
				<port id="0" precision="FP32">
					<dim>16</dim>
					<dim>1</dim>
					<dim>1</dim>
					<dim>1</dim>
				</port>
			</output>
		</layer>
		<layer id="100" name="/conv2/conv2.0/conv2b/conv2b.0/conv1/pre_ops.0/op/FakeQuantize" type="Multiply" version="opset1">
			<data auto_broadcast="numpy" />
			<input>
				<port id="0" precision="FP32">
					<dim>16</dim>
					<dim>16</dim>
					<dim>1</dim>
					<dim>1</dim>
				</port>
				<port id="1" precision="FP32">
					<dim>16</dim>
					<dim>1</dim>
					<dim>1</dim>
					<dim>1</dim>
				</port>
			</input>
			<output>
				<port id="2" precision="FP32" names="/conv2/conv2.0/conv2b/conv2b.0/conv1/pre_ops.0/op/FakeQuantize_output_0">
					<dim>16</dim>
					<dim>16</dim>
					<dim>1</dim>
					<dim>1</dim>
				</port>
			</output>
		</layer>
		<layer id="101" name="/conv2/conv2.0/conv2b/conv2b.0/conv1/Conv" type="Convolution" version="opset1">
			<data strides="1, 1" dilations="1, 1" pads_begin="0, 0" pads_end="0, 0" auto_pad="explicit" />
			<input>
				<port id="0" precision="FP32">
					<dim>-1</dim>
					<dim>16</dim>
					<dim>64</dim>
					<dim>32</dim>
				</port>
				<port id="1" precision="FP32">
					<dim>16</dim>
					<dim>16</dim>
					<dim>1</dim>
					<dim>1</dim>
				</port>
			</input>
			<output>
				<port id="2" precision="FP32" names="/conv2/conv2.0/conv2b/conv2b.0/conv1/Conv_output_0">
					<dim>-1</dim>
					<dim>16</dim>
					<dim>64</dim>
					<dim>32</dim>
				</port>
			</output>
		</layer>
		<layer id="102" name="/conv2/conv2.0/conv2b/conv2b.0/conv1/OSNet/Sequential[conv2]/OSBlock[0]/Sequential[conv2b]/LightConv3x3[0]/NNCFConv2d[conv1]/conv2d_0|OUTPUT/Constant" type="Const" version="opset1">
			<data element_type="f32" shape="1, 16, 1, 1" offset="4228" size="64" />
			<output>
				<port id="0" precision="FP32" names="/conv2/conv2.0/conv2b/conv2b.0/conv1/OSNet/Sequential[conv2]/OSBlock[0]/Sequential[conv2b]/LightConv3x3[0]/NNCFConv2d[conv1]/conv2d_0|OUTPUT/Constant_output_0">
					<dim>1</dim>
					<dim>16</dim>
					<dim>1</dim>
					<dim>1</dim>
				</port>
			</output>
		</layer>
		<layer id="103" name="/conv2/conv2.0/conv2b/conv2b.0/conv1/OSNet/Sequential[conv2]/OSBlock[0]/Sequential[conv2b]/LightConv3x3[0]/NNCFConv2d[conv1]/conv2d_0|OUTPUT/Constant_1" type="Const" version="opset1">
			<data element_type="f32" shape="1, 16, 1, 1" offset="4292" size="64" />
			<output>
				<port id="0" precision="FP32" names="/conv2/conv2.0/conv2b/conv2b.0/conv1/OSNet/Sequential[conv2]/OSBlock[0]/Sequential[conv2b]/LightConv3x3[0]/NNCFConv2d[conv1]/conv2d_0|OUTPUT/Constant_1_output_0">
					<dim>1</dim>
					<dim>16</dim>
					<dim>1</dim>
					<dim>1</dim>
				</port>
			</output>
		</layer>
		<layer id="104" name="/conv2/conv2.0/conv2b/conv2b.0/conv1/OSNet/Sequential[conv2]/OSBlock[0]/Sequential[conv2b]/LightConv3x3[0]/NNCFConv2d[conv1]/conv2d_0|OUTPUT/FakeQuantize" type="FakeQuantize" version="opset1">
			<data levels="256" auto_broadcast="numpy" />
			<input>
				<port id="0" precision="FP32">
					<dim>-1</dim>
					<dim>16</dim>
					<dim>64</dim>
					<dim>32</dim>
				</port>
				<port id="1" precision="FP32">
					<dim>1</dim>
					<dim>16</dim>
					<dim>1</dim>
					<dim>1</dim>
				</port>
				<port id="2" precision="FP32">
					<dim>1</dim>
					<dim>16</dim>
					<dim>1</dim>
					<dim>1</dim>
				</port>
				<port id="3" precision="FP32">
					<dim>1</dim>
					<dim>16</dim>
					<dim>1</dim>
					<dim>1</dim>
				</port>
				<port id="4" precision="FP32">
					<dim>1</dim>
					<dim>16</dim>
					<dim>1</dim>
					<dim>1</dim>
				</port>
			</input>
			<output>
				<port id="5" precision="FP32" names="/conv2/conv2.0/conv2b/conv2b.0/conv1/OSNet/Sequential[conv2]/OSBlock[0]/Sequential[conv2b]/LightConv3x3[0]/NNCFConv2d[conv1]/conv2d_0|OUTPUT/FakeQuantize_output_0">
					<dim>-1</dim>
					<dim>16</dim>
					<dim>64</dim>
					<dim>32</dim>
				</port>
			</output>
		</layer>
		<layer id="105" name="/conv2/conv2.0/conv2b/conv2b.0/conv2/pre_ops.0/op/Constant" type="Const" version="opset1">
			<data element_type="i8" shape="16, 1, 3, 3" offset="4356" size="144" />
			<output>
				<port id="0" precision="I8">
					<dim>16</dim>
					<dim>1</dim>
					<dim>3</dim>
					<dim>3</dim>
				</port>
			</output>
		</layer>
		<layer id="106" name="Convert_43570" type="Convert" version="opset1">
			<data destination_type="f32" />
			<input>
				<port id="0" precision="I8">
					<dim>16</dim>
					<dim>1</dim>
					<dim>3</dim>
					<dim>3</dim>
				</port>
			</input>
			<output>
				<port id="1" precision="FP32">
					<dim>16</dim>
					<dim>1</dim>
					<dim>3</dim>
					<dim>3</dim>
				</port>
			</output>
		</layer>
		<layer id="107" name="Constant_43468" type="Const" version="opset1">
			<data element_type="f32" shape="16, 1, 1, 1" offset="4500" size="64" />
			<output>
				<port id="0" precision="FP32">
					<dim>16</dim>
					<dim>1</dim>
					<dim>1</dim>
					<dim>1</dim>
				</port>
			</output>
		</layer>
		<layer id="108" name="/conv2/conv2.0/conv2b/conv2b.0/conv2/pre_ops.0/op/FakeQuantize" type="Multiply" version="opset1">
			<data auto_broadcast="numpy" />
			<input>
				<port id="0" precision="FP32">
					<dim>16</dim>
					<dim>1</dim>
					<dim>3</dim>
					<dim>3</dim>
				</port>
				<port id="1" precision="FP32">
					<dim>16</dim>
					<dim>1</dim>
					<dim>1</dim>
					<dim>1</dim>
				</port>
			</input>
			<output>
				<port id="2" precision="FP32" names="/conv2/conv2.0/conv2b/conv2b.0/conv2/pre_ops.0/op/FakeQuantize_output_0">
					<dim>16</dim>
					<dim>1</dim>
					<dim>3</dim>
					<dim>3</dim>
				</port>
			</output>
		</layer>
		<layer id="109" name="Reshape_35084" type="Const" version="opset1">
			<data element_type="f32" shape="16, 1, 1, 1" offset="4564" size="64" />
			<output>
				<port id="0" precision="FP32">
					<dim>16</dim>
					<dim>1</dim>
					<dim>1</dim>
					<dim>1</dim>
				</port>
			</output>
		</layer>
		<layer id="110" name="Multiply_35087" type="Multiply" version="opset1">
			<data auto_broadcast="numpy" />
			<input>
				<port id="0" precision="FP32">
					<dim>16</dim>
					<dim>1</dim>
					<dim>3</dim>
					<dim>3</dim>
				</port>
				<port id="1" precision="FP32">
					<dim>16</dim>
					<dim>1</dim>
					<dim>1</dim>
					<dim>1</dim>
				</port>
			</input>
			<output>
				<port id="2" precision="FP32">
					<dim>16</dim>
					<dim>1</dim>
					<dim>3</dim>
					<dim>3</dim>
				</port>
			</output>
		</layer>
		<layer id="111" name="Constant_14104" type="Const" version="opset1">
			<data element_type="i64" shape="1" offset="3604" size="8" />
			<output>
				<port id="0" precision="I64">
					<dim>1</dim>
				</port>
			</output>
		</layer>
		<layer id="112" name="ShapeOf_14105" type="ShapeOf" version="opset3">
			<data output_type="i64" />
			<input>
				<port id="0" precision="FP32">
					<dim>16</dim>
					<dim>1</dim>
					<dim>3</dim>
					<dim>3</dim>
				</port>
			</input>
			<output>
				<port id="1" precision="I64">
					<dim>4</dim>
				</port>
			</output>
		</layer>
		<layer id="113" name="Constant_14102" type="Const" version="opset1">
			<data element_type="i64" shape="" offset="3612" size="8" />
			<output>
				<port id="0" precision="I64" />
			</output>
		</layer>
		<layer id="114" name="Constant_14103" type="Const" version="opset1">
			<data element_type="i64" shape="2" offset="3620" size="16" />
			<output>
				<port id="0" precision="I64">
					<dim>2</dim>
				</port>
			</output>
		</layer>
		<layer id="115" name="VariadicSplit_14106" type="VariadicSplit" version="opset1">
			<input>
				<port id="0" precision="I64">
					<dim>4</dim>
				</port>
				<port id="1" precision="I64" />
				<port id="2" precision="I64">
					<dim>2</dim>
				</port>
			</input>
			<output>
				<port id="3" precision="I64">
					<dim>1</dim>
				</port>
				<port id="4" precision="I64">
					<dim>3</dim>
				</port>
			</output>
		</layer>
		<layer id="116" name="Divide_14107" type="Divide" version="opset1">
			<data auto_broadcast="numpy" m_pythondiv="true" />
			<input>
				<port id="0" precision="I64">
					<dim>1</dim>
				</port>
				<port id="1" precision="I64">
					<dim>1</dim>
				</port>
			</input>
			<output>
				<port id="2" precision="I64">
					<dim>1</dim>
				</port>
			</output>
		</layer>
		<layer id="117" name="Concat_14108" type="Concat" version="opset1">
			<data axis="0" />
			<input>
				<port id="0" precision="I64">
					<dim>1</dim>
				</port>
				<port id="1" precision="I64">
					<dim>1</dim>
				</port>
				<port id="2" precision="I64">
					<dim>3</dim>
				</port>
			</input>
			<output>
				<port id="3" precision="I64">
					<dim>5</dim>
				</port>
			</output>
		</layer>
		<layer id="118" name="Reshape_14109" type="Reshape" version="opset1">
			<data special_zero="false" />
			<input>
				<port id="0" precision="FP32">
					<dim>16</dim>
					<dim>1</dim>
					<dim>3</dim>
					<dim>3</dim>
				</port>
				<port id="1" precision="I64">
					<dim>5</dim>
				</port>
			</input>
			<output>
				<port id="2" precision="FP32">
					<dim>16</dim>
					<dim>1</dim>
					<dim>1</dim>
					<dim>3</dim>
					<dim>3</dim>
				</port>
			</output>
		</layer>
		<layer id="119" name="Multiply_34524" type="GroupConvolution" version="opset1">
			<data strides="1, 1" pads_begin="1, 1" pads_end="1, 1" dilations="1, 1" auto_pad="explicit" />
			<input>
				<port id="0" precision="FP32">
					<dim>-1</dim>
					<dim>16</dim>
					<dim>64</dim>
					<dim>32</dim>
				</port>
				<port id="1" precision="FP32">
					<dim>16</dim>
					<dim>1</dim>
					<dim>1</dim>
					<dim>3</dim>
					<dim>3</dim>
				</port>
			</input>
			<output>
				<port id="2" precision="FP32" names="/conv2/conv2.0/conv2b/conv2b.0/conv2/Conv_output_0">
					<dim>-1</dim>
					<dim>16</dim>
					<dim>64</dim>
					<dim>32</dim>
				</port>
			</output>
		</layer>
		<layer id="120" name="Constant_34529" type="Const" version="opset1">
			<data element_type="f32" shape="1, 16, 1, 1" offset="4628" size="64" />
			<output>
				<port id="0" precision="FP32">
					<dim>1</dim>
					<dim>16</dim>
					<dim>1</dim>
					<dim>1</dim>
				</port>
			</output>
		</layer>
		<layer id="121" name="/conv2/conv2.0/conv2b/conv2b.0/bn/BatchNormalization" type="Add" version="opset1">
			<data auto_broadcast="numpy" />
			<input>
				<port id="0" precision="FP32">
					<dim>-1</dim>
					<dim>16</dim>
					<dim>64</dim>
					<dim>32</dim>
				</port>
				<port id="1" precision="FP32">
					<dim>1</dim>
					<dim>16</dim>
					<dim>1</dim>
					<dim>1</dim>
				</port>
			</input>
			<output>
				<port id="2" precision="FP32" names="/conv2/conv2.0/conv2b/conv2b.0/bn/BatchNormalization_output_0">
					<dim>-1</dim>
					<dim>16</dim>
					<dim>64</dim>
					<dim>32</dim>
				</port>
			</output>
		</layer>
		<layer id="122" name="Constant_36477" type="Const" version="opset1">
			<data element_type="f32" shape="1, 1, 1, 1" offset="2488" size="4" />
			<output>
				<port id="0" precision="FP32">
					<dim>1</dim>
					<dim>1</dim>
					<dim>1</dim>
					<dim>1</dim>
				</port>
			</output>
		</layer>
		<layer id="123" name="Constant_36478" type="Const" version="opset1">
			<data element_type="f32" shape="1, 1, 1, 1" offset="4692" size="4" />
			<output>
				<port id="0" precision="FP32">
					<dim>1</dim>
					<dim>1</dim>
					<dim>1</dim>
					<dim>1</dim>
				</port>
			</output>
		</layer>
		<layer id="124" name="Constant_36479" type="Const" version="opset1">
			<data element_type="f32" shape="1, 1, 1, 1" offset="2488" size="4" />
			<output>
				<port id="0" precision="FP32">
					<dim>1</dim>
					<dim>1</dim>
					<dim>1</dim>
					<dim>1</dim>
				</port>
			</output>
		</layer>
		<layer id="125" name="Constant_36480" type="Const" version="opset1">
			<data element_type="f32" shape="1, 1, 1, 1" offset="4692" size="4" />
			<output>
				<port id="0" precision="FP32">
					<dim>1</dim>
					<dim>1</dim>
					<dim>1</dim>
					<dim>1</dim>
				</port>
			</output>
		</layer>
		<layer id="126" name="/conv2/conv2.0/conv2b/conv2b.0/relu/OSNet/Sequential[conv2]/OSBlock[0]/Sequential[conv2b]/LightConv3x3[0]/ReLU[relu]/relu__0|OUTPUT/FakeQuantize" type="FakeQuantize" version="opset1">
			<data levels="256" auto_broadcast="numpy" />
			<input>
				<port id="0" precision="FP32">
					<dim>-1</dim>
					<dim>16</dim>
					<dim>64</dim>
					<dim>32</dim>
				</port>
				<port id="1" precision="FP32">
					<dim>1</dim>
					<dim>1</dim>
					<dim>1</dim>
					<dim>1</dim>
				</port>
				<port id="2" precision="FP32">
					<dim>1</dim>
					<dim>1</dim>
					<dim>1</dim>
					<dim>1</dim>
				</port>
				<port id="3" precision="FP32">
					<dim>1</dim>
					<dim>1</dim>
					<dim>1</dim>
					<dim>1</dim>
				</port>
				<port id="4" precision="FP32">
					<dim>1</dim>
					<dim>1</dim>
					<dim>1</dim>
					<dim>1</dim>
				</port>
			</input>
			<output>
				<port id="5" precision="FP32" names="/conv2/conv2.0/conv2b/conv2b.0/relu/OSNet/Sequential[conv2]/OSBlock[0]/Sequential[conv2b]/LightConv3x3[0]/ReLU[relu]/relu__0|OUTPUT/FakeQuantize_output_0">
					<dim>-1</dim>
					<dim>16</dim>
					<dim>64</dim>
					<dim>32</dim>
				</port>
			</output>
		</layer>
		<layer id="127" name="/conv2/conv2.0/conv2b/conv2b.1/conv1/pre_ops.0/op/Constant" type="Const" version="opset1">
			<data element_type="i8" shape="16, 16, 1, 1" offset="4696" size="256" />
			<output>
				<port id="0" precision="I8">
					<dim>16</dim>
					<dim>16</dim>
					<dim>1</dim>
					<dim>1</dim>
				</port>
			</output>
		</layer>
		<layer id="128" name="Convert_43724" type="Convert" version="opset1">
			<data destination_type="f32" />
			<input>
				<port id="0" precision="I8">
					<dim>16</dim>
					<dim>16</dim>
					<dim>1</dim>
					<dim>1</dim>
				</port>
			</input>
			<output>
				<port id="1" precision="FP32">
					<dim>16</dim>
					<dim>16</dim>
					<dim>1</dim>
					<dim>1</dim>
				</port>
			</output>
		</layer>
		<layer id="129" name="Constant_43622" type="Const" version="opset1">
			<data element_type="f32" shape="16, 1, 1, 1" offset="4952" size="64" />
			<output>
				<port id="0" precision="FP32">
					<dim>16</dim>
					<dim>1</dim>
					<dim>1</dim>
					<dim>1</dim>
				</port>
			</output>
		</layer>
		<layer id="130" name="/conv2/conv2.0/conv2b/conv2b.1/conv1/pre_ops.0/op/FakeQuantize" type="Multiply" version="opset1">
			<data auto_broadcast="numpy" />
			<input>
				<port id="0" precision="FP32">
					<dim>16</dim>
					<dim>16</dim>
					<dim>1</dim>
					<dim>1</dim>
				</port>
				<port id="1" precision="FP32">
					<dim>16</dim>
					<dim>1</dim>
					<dim>1</dim>
					<dim>1</dim>
				</port>
			</input>
			<output>
				<port id="2" precision="FP32" names="/conv2/conv2.0/conv2b/conv2b.1/conv1/pre_ops.0/op/FakeQuantize_output_0">
					<dim>16</dim>
					<dim>16</dim>
					<dim>1</dim>
					<dim>1</dim>
				</port>
			</output>
		</layer>
		<layer id="131" name="/conv2/conv2.0/conv2b/conv2b.1/conv1/Conv" type="Convolution" version="opset1">
			<data strides="1, 1" dilations="1, 1" pads_begin="0, 0" pads_end="0, 0" auto_pad="explicit" />
			<input>
				<port id="0" precision="FP32">
					<dim>-1</dim>
					<dim>16</dim>
					<dim>64</dim>
					<dim>32</dim>
				</port>
				<port id="1" precision="FP32">
					<dim>16</dim>
					<dim>16</dim>
					<dim>1</dim>
					<dim>1</dim>
				</port>
			</input>
			<output>
				<port id="2" precision="FP32" names="/conv2/conv2.0/conv2b/conv2b.1/conv1/Conv_output_0">
					<dim>-1</dim>
					<dim>16</dim>
					<dim>64</dim>
					<dim>32</dim>
				</port>
			</output>
		</layer>
		<layer id="132" name="/conv2/conv2.0/conv2b/conv2b.1/conv1/OSNet/Sequential[conv2]/OSBlock[0]/Sequential[conv2b]/LightConv3x3[1]/NNCFConv2d[conv1]/conv2d_0|OUTPUT/Constant" type="Const" version="opset1">
			<data element_type="f32" shape="1, 16, 1, 1" offset="5016" size="64" />
			<output>
				<port id="0" precision="FP32" names="/conv2/conv2.0/conv2b/conv2b.1/conv1/OSNet/Sequential[conv2]/OSBlock[0]/Sequential[conv2b]/LightConv3x3[1]/NNCFConv2d[conv1]/conv2d_0|OUTPUT/Constant_output_0">
					<dim>1</dim>
					<dim>16</dim>
					<dim>1</dim>
					<dim>1</dim>
				</port>
			</output>
		</layer>
		<layer id="133" name="/conv2/conv2.0/conv2b/conv2b.1/conv1/OSNet/Sequential[conv2]/OSBlock[0]/Sequential[conv2b]/LightConv3x3[1]/NNCFConv2d[conv1]/conv2d_0|OUTPUT/Constant_1" type="Const" version="opset1">
			<data element_type="f32" shape="1, 16, 1, 1" offset="5080" size="64" />
			<output>
				<port id="0" precision="FP32" names="/conv2/conv2.0/conv2b/conv2b.1/conv1/OSNet/Sequential[conv2]/OSBlock[0]/Sequential[conv2b]/LightConv3x3[1]/NNCFConv2d[conv1]/conv2d_0|OUTPUT/Constant_1_output_0">
					<dim>1</dim>
					<dim>16</dim>
					<dim>1</dim>
					<dim>1</dim>
				</port>
			</output>
		</layer>
		<layer id="134" name="/conv2/conv2.0/conv2b/conv2b.1/conv1/OSNet/Sequential[conv2]/OSBlock[0]/Sequential[conv2b]/LightConv3x3[1]/NNCFConv2d[conv1]/conv2d_0|OUTPUT/FakeQuantize" type="FakeQuantize" version="opset1">
			<data levels="256" auto_broadcast="numpy" />
			<input>
				<port id="0" precision="FP32">
					<dim>-1</dim>
					<dim>16</dim>
					<dim>64</dim>
					<dim>32</dim>
				</port>
				<port id="1" precision="FP32">
					<dim>1</dim>
					<dim>16</dim>
					<dim>1</dim>
					<dim>1</dim>
				</port>
				<port id="2" precision="FP32">
					<dim>1</dim>
					<dim>16</dim>
					<dim>1</dim>
					<dim>1</dim>
				</port>
				<port id="3" precision="FP32">
					<dim>1</dim>
					<dim>16</dim>
					<dim>1</dim>
					<dim>1</dim>
				</port>
				<port id="4" precision="FP32">
					<dim>1</dim>
					<dim>16</dim>
					<dim>1</dim>
					<dim>1</dim>
				</port>
			</input>
			<output>
				<port id="5" precision="FP32" names="/conv2/conv2.0/conv2b/conv2b.1/conv1/OSNet/Sequential[conv2]/OSBlock[0]/Sequential[conv2b]/LightConv3x3[1]/NNCFConv2d[conv1]/conv2d_0|OUTPUT/FakeQuantize_output_0">
					<dim>-1</dim>
					<dim>16</dim>
					<dim>64</dim>
					<dim>32</dim>
				</port>
			</output>
		</layer>
		<layer id="135" name="/conv2/conv2.0/conv2b/conv2b.1/conv2/pre_ops.0/op/Constant" type="Const" version="opset1">
			<data element_type="i8" shape="16, 1, 3, 3" offset="5144" size="144" />
			<output>
				<port id="0" precision="I8">
					<dim>16</dim>
					<dim>1</dim>
					<dim>3</dim>
					<dim>3</dim>
				</port>
			</output>
		</layer>
		<layer id="136" name="Convert_43878" type="Convert" version="opset1">
			<data destination_type="f32" />
			<input>
				<port id="0" precision="I8">
					<dim>16</dim>
					<dim>1</dim>
					<dim>3</dim>
					<dim>3</dim>
				</port>
			</input>
			<output>
				<port id="1" precision="FP32">
					<dim>16</dim>
					<dim>1</dim>
					<dim>3</dim>
					<dim>3</dim>
				</port>
			</output>
		</layer>
		<layer id="137" name="Constant_43776" type="Const" version="opset1">
			<data element_type="f32" shape="16, 1, 1, 1" offset="5288" size="64" />
			<output>
				<port id="0" precision="FP32">
					<dim>16</dim>
					<dim>1</dim>
					<dim>1</dim>
					<dim>1</dim>
				</port>
			</output>
		</layer>
		<layer id="138" name="/conv2/conv2.0/conv2b/conv2b.1/conv2/pre_ops.0/op/FakeQuantize" type="Multiply" version="opset1">
			<data auto_broadcast="numpy" />
			<input>
				<port id="0" precision="FP32">
					<dim>16</dim>
					<dim>1</dim>
					<dim>3</dim>
					<dim>3</dim>
				</port>
				<port id="1" precision="FP32">
					<dim>16</dim>
					<dim>1</dim>
					<dim>1</dim>
					<dim>1</dim>
				</port>
			</input>
			<output>
				<port id="2" precision="FP32" names="/conv2/conv2.0/conv2b/conv2b.1/conv2/pre_ops.0/op/FakeQuantize_output_0">
					<dim>16</dim>
					<dim>1</dim>
					<dim>3</dim>
					<dim>3</dim>
				</port>
			</output>
		</layer>
		<layer id="139" name="Reshape_35089" type="Const" version="opset1">
			<data element_type="f32" shape="16, 1, 1, 1" offset="5352" size="64" />
			<output>
				<port id="0" precision="FP32">
					<dim>16</dim>
					<dim>1</dim>
					<dim>1</dim>
					<dim>1</dim>
				</port>
			</output>
		</layer>
		<layer id="140" name="Multiply_35092" type="Multiply" version="opset1">
			<data auto_broadcast="numpy" />
			<input>
				<port id="0" precision="FP32">
					<dim>16</dim>
					<dim>1</dim>
					<dim>3</dim>
					<dim>3</dim>
				</port>
				<port id="1" precision="FP32">
					<dim>16</dim>
					<dim>1</dim>
					<dim>1</dim>
					<dim>1</dim>
				</port>
			</input>
			<output>
				<port id="2" precision="FP32">
					<dim>16</dim>
					<dim>1</dim>
					<dim>3</dim>
					<dim>3</dim>
				</port>
			</output>
		</layer>
		<layer id="141" name="Constant_14171" type="Const" version="opset1">
			<data element_type="i64" shape="1" offset="3604" size="8" />
			<output>
				<port id="0" precision="I64">
					<dim>1</dim>
				</port>
			</output>
		</layer>
		<layer id="142" name="ShapeOf_14172" type="ShapeOf" version="opset3">
			<data output_type="i64" />
			<input>
				<port id="0" precision="FP32">
					<dim>16</dim>
					<dim>1</dim>
					<dim>3</dim>
					<dim>3</dim>
				</port>
			</input>
			<output>
				<port id="1" precision="I64">
					<dim>4</dim>
				</port>
			</output>
		</layer>
		<layer id="143" name="Constant_14169" type="Const" version="opset1">
			<data element_type="i64" shape="" offset="3612" size="8" />
			<output>
				<port id="0" precision="I64" />
			</output>
		</layer>
		<layer id="144" name="Constant_14170" type="Const" version="opset1">
			<data element_type="i64" shape="2" offset="3620" size="16" />
			<output>
				<port id="0" precision="I64">
					<dim>2</dim>
				</port>
			</output>
		</layer>
		<layer id="145" name="VariadicSplit_14173" type="VariadicSplit" version="opset1">
			<input>
				<port id="0" precision="I64">
					<dim>4</dim>
				</port>
				<port id="1" precision="I64" />
				<port id="2" precision="I64">
					<dim>2</dim>
				</port>
			</input>
			<output>
				<port id="3" precision="I64">
					<dim>1</dim>
				</port>
				<port id="4" precision="I64">
					<dim>3</dim>
				</port>
			</output>
		</layer>
		<layer id="146" name="Divide_14174" type="Divide" version="opset1">
			<data auto_broadcast="numpy" m_pythondiv="true" />
			<input>
				<port id="0" precision="I64">
					<dim>1</dim>
				</port>
				<port id="1" precision="I64">
					<dim>1</dim>
				</port>
			</input>
			<output>
				<port id="2" precision="I64">
					<dim>1</dim>
				</port>
			</output>
		</layer>
		<layer id="147" name="Concat_14175" type="Concat" version="opset1">
			<data axis="0" />
			<input>
				<port id="0" precision="I64">
					<dim>1</dim>
				</port>
				<port id="1" precision="I64">
					<dim>1</dim>
				</port>
				<port id="2" precision="I64">
					<dim>3</dim>
				</port>
			</input>
			<output>
				<port id="3" precision="I64">
					<dim>5</dim>
				</port>
			</output>
		</layer>
		<layer id="148" name="Reshape_14176" type="Reshape" version="opset1">
			<data special_zero="false" />
			<input>
				<port id="0" precision="FP32">
					<dim>16</dim>
					<dim>1</dim>
					<dim>3</dim>
					<dim>3</dim>
				</port>
				<port id="1" precision="I64">
					<dim>5</dim>
				</port>
			</input>
			<output>
				<port id="2" precision="FP32">
					<dim>16</dim>
					<dim>1</dim>
					<dim>1</dim>
					<dim>3</dim>
					<dim>3</dim>
				</port>
			</output>
		</layer>
		<layer id="149" name="Multiply_34531" type="GroupConvolution" version="opset1">
			<data strides="1, 1" pads_begin="1, 1" pads_end="1, 1" dilations="1, 1" auto_pad="explicit" />
			<input>
				<port id="0" precision="FP32">
					<dim>-1</dim>
					<dim>16</dim>
					<dim>64</dim>
					<dim>32</dim>
				</port>
				<port id="1" precision="FP32">
					<dim>16</dim>
					<dim>1</dim>
					<dim>1</dim>
					<dim>3</dim>
					<dim>3</dim>
				</port>
			</input>
			<output>
				<port id="2" precision="FP32" names="/conv2/conv2.0/conv2b/conv2b.1/conv2/Conv_output_0">
					<dim>-1</dim>
					<dim>16</dim>
					<dim>64</dim>
					<dim>32</dim>
				</port>
			</output>
		</layer>
		<layer id="150" name="Constant_34536" type="Const" version="opset1">
			<data element_type="f32" shape="1, 16, 1, 1" offset="5416" size="64" />
			<output>
				<port id="0" precision="FP32">
					<dim>1</dim>
					<dim>16</dim>
					<dim>1</dim>
					<dim>1</dim>
				</port>
			</output>
		</layer>
		<layer id="151" name="/conv2/conv2.0/conv2b/conv2b.1/bn/BatchNormalization" type="Add" version="opset1">
			<data auto_broadcast="numpy" />
			<input>
				<port id="0" precision="FP32">
					<dim>-1</dim>
					<dim>16</dim>
					<dim>64</dim>
					<dim>32</dim>
				</port>
				<port id="1" precision="FP32">
					<dim>1</dim>
					<dim>16</dim>
					<dim>1</dim>
					<dim>1</dim>
				</port>
			</input>
			<output>
				<port id="2" precision="FP32" names="/conv2/conv2.0/conv2b/conv2b.1/bn/BatchNormalization_output_0">
					<dim>-1</dim>
					<dim>16</dim>
					<dim>64</dim>
					<dim>32</dim>
				</port>
			</output>
		</layer>
		<layer id="152" name="Constant_36481" type="Const" version="opset1">
			<data element_type="f32" shape="1, 1, 1, 1" offset="2488" size="4" />
			<output>
				<port id="0" precision="FP32">
					<dim>1</dim>
					<dim>1</dim>
					<dim>1</dim>
					<dim>1</dim>
				</port>
			</output>
		</layer>
		<layer id="153" name="Constant_36482" type="Const" version="opset1">
			<data element_type="f32" shape="1, 1, 1, 1" offset="5480" size="4" />
			<output>
				<port id="0" precision="FP32">
					<dim>1</dim>
					<dim>1</dim>
					<dim>1</dim>
					<dim>1</dim>
				</port>
			</output>
		</layer>
		<layer id="154" name="Constant_36483" type="Const" version="opset1">
			<data element_type="f32" shape="1, 1, 1, 1" offset="2488" size="4" />
			<output>
				<port id="0" precision="FP32">
					<dim>1</dim>
					<dim>1</dim>
					<dim>1</dim>
					<dim>1</dim>
				</port>
			</output>
		</layer>
		<layer id="155" name="Constant_36484" type="Const" version="opset1">
			<data element_type="f32" shape="1, 1, 1, 1" offset="5480" size="4" />
			<output>
				<port id="0" precision="FP32">
					<dim>1</dim>
					<dim>1</dim>
					<dim>1</dim>
					<dim>1</dim>
				</port>
			</output>
		</layer>
		<layer id="156" name="/conv2/conv2.0/conv2b/conv2b.1/relu/OSNet/Sequential[conv2]/OSBlock[0]/Sequential[conv2b]/LightConv3x3[1]/ReLU[relu]/relu__0|OUTPUT/FakeQuantize" type="FakeQuantize" version="opset1">
			<data levels="256" auto_broadcast="numpy" />
			<input>
				<port id="0" precision="FP32">
					<dim>-1</dim>
					<dim>16</dim>
					<dim>64</dim>
					<dim>32</dim>
				</port>
				<port id="1" precision="FP32">
					<dim>1</dim>
					<dim>1</dim>
					<dim>1</dim>
					<dim>1</dim>
				</port>
				<port id="2" precision="FP32">
					<dim>1</dim>
					<dim>1</dim>
					<dim>1</dim>
					<dim>1</dim>
				</port>
				<port id="3" precision="FP32">
					<dim>1</dim>
					<dim>1</dim>
					<dim>1</dim>
					<dim>1</dim>
				</port>
				<port id="4" precision="FP32">
					<dim>1</dim>
					<dim>1</dim>
					<dim>1</dim>
					<dim>1</dim>
				</port>
			</input>
			<output>
				<port id="5" precision="FP32" names="/conv2/conv2.0/conv2b/conv2b.1/relu/OSNet/Sequential[conv2]/OSBlock[0]/Sequential[conv2b]/LightConv3x3[1]/ReLU[relu]/relu__0|OUTPUT/FakeQuantize_output_0">
					<dim>-1</dim>
					<dim>16</dim>
					<dim>64</dim>
					<dim>32</dim>
				</port>
			</output>
		</layer>
		<layer id="157" name="Range_14756" type="Const" version="opset1">
			<data element_type="i64" shape="2" offset="3704" size="16" />
			<output>
				<port id="0" precision="I64">
					<dim>2</dim>
				</port>
			</output>
		</layer>
		<layer id="158" name="/conv2/conv2.0/gate/global_avgpool_1/GlobalAveragePool" type="ReduceMean" version="opset1">
			<data keep_dims="true" />
			<input>
				<port id="0" precision="FP32">
					<dim>-1</dim>
					<dim>16</dim>
					<dim>64</dim>
					<dim>32</dim>
				</port>
				<port id="1" precision="I64">
					<dim>2</dim>
				</port>
			</input>
			<output>
				<port id="2" precision="FP32" names="/conv2/conv2.0/gate/global_avgpool_1/GlobalAveragePool_output_0">
					<dim>-1</dim>
					<dim>16</dim>
					<dim>1</dim>
					<dim>1</dim>
				</port>
			</output>
		</layer>
		<layer id="159" name="Constant_36485" type="Const" version="opset1">
			<data element_type="f32" shape="1, 1, 1, 1" offset="2488" size="4" />
			<output>
				<port id="0" precision="FP32">
					<dim>1</dim>
					<dim>1</dim>
					<dim>1</dim>
					<dim>1</dim>
				</port>
			</output>
		</layer>
		<layer id="160" name="Constant_36486" type="Const" version="opset1">
			<data element_type="f32" shape="1, 1, 1, 1" offset="5484" size="4" />
			<output>
				<port id="0" precision="FP32">
					<dim>1</dim>
					<dim>1</dim>
					<dim>1</dim>
					<dim>1</dim>
				</port>
			</output>
		</layer>
		<layer id="161" name="Constant_36487" type="Const" version="opset1">
			<data element_type="f32" shape="1, 1, 1, 1" offset="2488" size="4" />
			<output>
				<port id="0" precision="FP32">
					<dim>1</dim>
					<dim>1</dim>
					<dim>1</dim>
					<dim>1</dim>
				</port>
			</output>
		</layer>
		<layer id="162" name="Constant_36488" type="Const" version="opset1">
			<data element_type="f32" shape="1, 1, 1, 1" offset="5484" size="4" />
			<output>
				<port id="0" precision="FP32">
					<dim>1</dim>
					<dim>1</dim>
					<dim>1</dim>
					<dim>1</dim>
				</port>
			</output>
		</layer>
		<layer id="163" name="/conv2/conv2.0/gate/global_avgpool/OSNet/Sequential[conv2]/OSBlock[0]/ChannelGate[gate]/AdaptiveAvgPool2d[global_avgpool]/adaptive_avg_pool2d_1|OUTPUT/FakeQuantize" type="FakeQuantize" version="opset1">
			<data levels="256" auto_broadcast="numpy" />
			<input>
				<port id="0" precision="FP32">
					<dim>-1</dim>
					<dim>16</dim>
					<dim>1</dim>
					<dim>1</dim>
				</port>
				<port id="1" precision="FP32">
					<dim>1</dim>
					<dim>1</dim>
					<dim>1</dim>
					<dim>1</dim>
				</port>
				<port id="2" precision="FP32">
					<dim>1</dim>
					<dim>1</dim>
					<dim>1</dim>
					<dim>1</dim>
				</port>
				<port id="3" precision="FP32">
					<dim>1</dim>
					<dim>1</dim>
					<dim>1</dim>
					<dim>1</dim>
				</port>
				<port id="4" precision="FP32">
					<dim>1</dim>
					<dim>1</dim>
					<dim>1</dim>
					<dim>1</dim>
				</port>
			</input>
			<output>
				<port id="5" precision="FP32" names="/conv2/conv2.0/gate/global_avgpool/OSNet/Sequential[conv2]/OSBlock[0]/ChannelGate[gate]/AdaptiveAvgPool2d[global_avgpool]/adaptive_avg_pool2d_1|OUTPUT/FakeQuantize_output_0">
					<dim>-1</dim>
					<dim>16</dim>
					<dim>1</dim>
					<dim>1</dim>
				</port>
			</output>
		</layer>
		<layer id="164" name="/conv2/conv2.0/gate/fc1/pre_ops.0/op/Constant0" type="Const" version="opset1">
			<data element_type="i8" shape="1, 16, 1, 1" offset="3724" size="16" />
			<output>
				<port id="0" precision="I8">
					<dim>1</dim>
					<dim>16</dim>
					<dim>1</dim>
					<dim>1</dim>
				</port>
			</output>
		</layer>
		<layer id="165" name="Convert_44032" type="Convert" version="opset1">
			<data destination_type="f32" />
			<input>
				<port id="0" precision="I8">
					<dim>1</dim>
					<dim>16</dim>
					<dim>1</dim>
					<dim>1</dim>
				</port>
			</input>
			<output>
				<port id="1" precision="FP32">
					<dim>1</dim>
					<dim>16</dim>
					<dim>1</dim>
					<dim>1</dim>
				</port>
			</output>
		</layer>
		<layer id="166" name="Constant_43930" type="Const" version="opset1">
			<data element_type="f32" shape="1, 1, 1, 1" offset="3740" size="4" />
			<output>
				<port id="0" precision="FP32">
					<dim>1</dim>
					<dim>1</dim>
					<dim>1</dim>
					<dim>1</dim>
				</port>
			</output>
		</layer>
		<layer id="167" name="/conv2/conv2.0/gate/fc1/pre_ops.0/op_1/FakeQuantize" type="Multiply" version="opset1">
			<data auto_broadcast="numpy" />
			<input>
				<port id="0" precision="FP32">
					<dim>1</dim>
					<dim>16</dim>
					<dim>1</dim>
					<dim>1</dim>
				</port>
				<port id="1" precision="FP32">
					<dim>1</dim>
					<dim>1</dim>
					<dim>1</dim>
					<dim>1</dim>
				</port>
			</input>
			<output>
				<port id="2" precision="FP32" names="/conv2/conv2.0/gate/fc1/pre_ops.0/op_1/FakeQuantize_output_0">
					<dim>1</dim>
					<dim>16</dim>
					<dim>1</dim>
					<dim>1</dim>
				</port>
			</output>
		</layer>
		<layer id="168" name="/conv2/conv2.0/gate/fc1_1/Conv/WithoutBiases" type="Convolution" version="opset1">
			<data strides="1, 1" dilations="1, 1" pads_begin="0, 0" pads_end="0, 0" auto_pad="explicit" />
			<input>
				<port id="0" precision="FP32">
					<dim>-1</dim>
					<dim>16</dim>
					<dim>1</dim>
					<dim>1</dim>
				</port>
				<port id="1" precision="FP32">
					<dim>1</dim>
					<dim>16</dim>
					<dim>1</dim>
					<dim>1</dim>
				</port>
			</input>
			<output>
				<port id="2" precision="FP32">
					<dim>-1</dim>
					<dim>1</dim>
					<dim>1</dim>
					<dim>1</dim>
				</port>
			</output>
		</layer>
		<layer id="169" name="Constant_36187" type="Const" version="opset1">
			<data element_type="f32" shape="1, 1, 1, 1" offset="3744" size="4" />
			<output>
				<port id="0" precision="FP32">
					<dim>1</dim>
					<dim>1</dim>
					<dim>1</dim>
					<dim>1</dim>
				</port>
			</output>
		</layer>
		<layer id="170" name="Constant_36189" type="Const" version="opset1">
			<data element_type="f32" shape="1, 1, 1, 1" offset="5488" size="4" />
			<output>
				<port id="0" precision="FP32">
					<dim>1</dim>
					<dim>1</dim>
					<dim>1</dim>
					<dim>1</dim>
				</port>
			</output>
		</layer>
		<layer id="171" name="Constant_36489" type="Const" version="opset1">
			<data element_type="f32" shape="1, 1, 1, 1" offset="2488" size="4" />
			<output>
				<port id="0" precision="FP32">
					<dim>1</dim>
					<dim>1</dim>
					<dim>1</dim>
					<dim>1</dim>
				</port>
			</output>
		</layer>
		<layer id="172" name="Constant_36490" type="Const" version="opset1">
			<data element_type="f32" shape="1, 1, 1, 1" offset="5492" size="4" />
			<output>
				<port id="0" precision="FP32">
					<dim>1</dim>
					<dim>1</dim>
					<dim>1</dim>
					<dim>1</dim>
				</port>
			</output>
		</layer>
		<layer id="173" name="/conv2/conv2.0/gate/relu/OSNet/Sequential[conv2]/OSBlock[0]/ChannelGate[gate]/ReLU[relu]/relu__1|OUTPUT/FakeQuantize" type="FakeQuantize" version="opset1">
			<data levels="256" auto_broadcast="numpy" />
			<input>
				<port id="0" precision="FP32">
					<dim>-1</dim>
					<dim>1</dim>
					<dim>1</dim>
					<dim>1</dim>
				</port>
				<port id="1" precision="FP32">
					<dim>1</dim>
					<dim>1</dim>
					<dim>1</dim>
					<dim>1</dim>
				</port>
				<port id="2" precision="FP32">
					<dim>1</dim>
					<dim>1</dim>
					<dim>1</dim>
					<dim>1</dim>
				</port>
				<port id="3" precision="FP32">
					<dim>1</dim>
					<dim>1</dim>
					<dim>1</dim>
					<dim>1</dim>
				</port>
				<port id="4" precision="FP32">
					<dim>1</dim>
					<dim>1</dim>
					<dim>1</dim>
					<dim>1</dim>
				</port>
			</input>
			<output>
				<port id="5" precision="FP32" names="/conv2/conv2.0/gate/relu/OSNet/Sequential[conv2]/OSBlock[0]/ChannelGate[gate]/ReLU[relu]/relu__1|OUTPUT/FakeQuantize_output_0">
					<dim>-1</dim>
					<dim>1</dim>
					<dim>1</dim>
					<dim>1</dim>
				</port>
			</output>
		</layer>
		<layer id="174" name="/conv2/conv2.0/gate/fc2/pre_ops.0/op/Constant0" type="Const" version="opset1">
			<data element_type="i8" shape="16, 1, 1, 1" offset="3756" size="16" />
			<output>
				<port id="0" precision="I8">
					<dim>16</dim>
					<dim>1</dim>
					<dim>1</dim>
					<dim>1</dim>
				</port>
			</output>
		</layer>
		<layer id="175" name="Convert_44186" type="Convert" version="opset1">
			<data destination_type="f32" />
			<input>
				<port id="0" precision="I8">
					<dim>16</dim>
					<dim>1</dim>
					<dim>1</dim>
					<dim>1</dim>
				</port>
			</input>
			<output>
				<port id="1" precision="FP32">
					<dim>16</dim>
					<dim>1</dim>
					<dim>1</dim>
					<dim>1</dim>
				</port>
			</output>
		</layer>
		<layer id="176" name="Constant_44084" type="Const" version="opset1">
			<data element_type="f32" shape="16, 1, 1, 1" offset="3772" size="64" />
			<output>
				<port id="0" precision="FP32">
					<dim>16</dim>
					<dim>1</dim>
					<dim>1</dim>
					<dim>1</dim>
				</port>
			</output>
		</layer>
		<layer id="177" name="/conv2/conv2.0/gate/fc2/pre_ops.0/op_1/FakeQuantize" type="Multiply" version="opset1">
			<data auto_broadcast="numpy" />
			<input>
				<port id="0" precision="FP32">
					<dim>16</dim>
					<dim>1</dim>
					<dim>1</dim>
					<dim>1</dim>
				</port>
				<port id="1" precision="FP32">
					<dim>16</dim>
					<dim>1</dim>
					<dim>1</dim>
					<dim>1</dim>
				</port>
			</input>
			<output>
				<port id="2" precision="FP32" names="/conv2/conv2.0/gate/fc2/pre_ops.0/op_1/FakeQuantize_output_0">
					<dim>16</dim>
					<dim>1</dim>
					<dim>1</dim>
					<dim>1</dim>
				</port>
			</output>
		</layer>
		<layer id="178" name="/conv2/conv2.0/gate/fc2_1/Conv/WithoutBiases" type="Convolution" version="opset1">
			<data strides="1, 1" dilations="1, 1" pads_begin="0, 0" pads_end="0, 0" auto_pad="explicit" />
			<input>
				<port id="0" precision="FP32">
					<dim>-1</dim>
					<dim>1</dim>
					<dim>1</dim>
					<dim>1</dim>
				</port>
				<port id="1" precision="FP32">
					<dim>16</dim>
					<dim>1</dim>
					<dim>1</dim>
					<dim>1</dim>
				</port>
			</input>
			<output>
				<port id="2" precision="FP32">
					<dim>-1</dim>
					<dim>16</dim>
					<dim>1</dim>
					<dim>1</dim>
				</port>
			</output>
		</layer>
		<layer id="179" name="Reshape_14793" type="Const" version="opset1">
			<data element_type="f32" shape="1, 16, 1, 1" offset="3836" size="64" />
			<output>
				<port id="0" precision="FP32">
					<dim>1</dim>
					<dim>16</dim>
					<dim>1</dim>
					<dim>1</dim>
				</port>
			</output>
		</layer>
		<layer id="180" name="/conv2/conv2.0/gate/fc2_1/Conv" type="Add" version="opset1">
			<data auto_broadcast="numpy" />
			<input>
				<port id="0" precision="FP32">
					<dim>-1</dim>
					<dim>16</dim>
					<dim>1</dim>
					<dim>1</dim>
				</port>
				<port id="1" precision="FP32">
					<dim>1</dim>
					<dim>16</dim>
					<dim>1</dim>
					<dim>1</dim>
				</port>
			</input>
			<output>
				<port id="2" precision="FP32" names="/conv2/conv2.0/gate/fc2_1/Conv_output_0">
					<dim>-1</dim>
					<dim>16</dim>
					<dim>1</dim>
					<dim>1</dim>
				</port>
			</output>
		</layer>
		<layer id="181" name="/conv2/conv2.0/gate/gate_activation_1/Sigmoid" type="Sigmoid" version="opset1">
			<input>
				<port id="0" precision="FP32">
					<dim>-1</dim>
					<dim>16</dim>
					<dim>1</dim>
					<dim>1</dim>
				</port>
			</input>
			<output>
				<port id="1" precision="FP32" names="/conv2/conv2.0/gate/gate_activation_1/Sigmoid_output_0">
					<dim>-1</dim>
					<dim>16</dim>
					<dim>1</dim>
					<dim>1</dim>
				</port>
			</output>
		</layer>
		<layer id="182" name="Constant_36491" type="Const" version="opset1">
			<data element_type="f32" shape="1, 1, 1, 1" offset="2488" size="4" />
			<output>
				<port id="0" precision="FP32">
					<dim>1</dim>
					<dim>1</dim>
					<dim>1</dim>
					<dim>1</dim>
				</port>
			</output>
		</layer>
		<layer id="183" name="Constant_36492" type="Const" version="opset1">
			<data element_type="f32" shape="1, 1, 1, 1" offset="5496" size="4" />
			<output>
				<port id="0" precision="FP32">
					<dim>1</dim>
					<dim>1</dim>
					<dim>1</dim>
					<dim>1</dim>
				</port>
			</output>
		</layer>
		<layer id="184" name="Constant_36493" type="Const" version="opset1">
			<data element_type="f32" shape="1, 1, 1, 1" offset="2488" size="4" />
			<output>
				<port id="0" precision="FP32">
					<dim>1</dim>
					<dim>1</dim>
					<dim>1</dim>
					<dim>1</dim>
				</port>
			</output>
		</layer>
		<layer id="185" name="Constant_36494" type="Const" version="opset1">
			<data element_type="f32" shape="1, 1, 1, 1" offset="5496" size="4" />
			<output>
				<port id="0" precision="FP32">
					<dim>1</dim>
					<dim>1</dim>
					<dim>1</dim>
					<dim>1</dim>
				</port>
			</output>
		</layer>
		<layer id="186" name="/conv2/conv2.0/gate/gate_activation/OSNet/Sequential[conv2]/OSBlock[0]/ChannelGate[gate]/Sigmoid[gate_activation]/sigmoid_1|OUTPUT/FakeQuantize" type="FakeQuantize" version="opset1">
			<data levels="256" auto_broadcast="numpy" />
			<input>
				<port id="0" precision="FP32">
					<dim>-1</dim>
					<dim>16</dim>
					<dim>1</dim>
					<dim>1</dim>
				</port>
				<port id="1" precision="FP32">
					<dim>1</dim>
					<dim>1</dim>
					<dim>1</dim>
					<dim>1</dim>
				</port>
				<port id="2" precision="FP32">
					<dim>1</dim>
					<dim>1</dim>
					<dim>1</dim>
					<dim>1</dim>
				</port>
				<port id="3" precision="FP32">
					<dim>1</dim>
					<dim>1</dim>
					<dim>1</dim>
					<dim>1</dim>
				</port>
				<port id="4" precision="FP32">
					<dim>1</dim>
					<dim>1</dim>
					<dim>1</dim>
					<dim>1</dim>
				</port>
			</input>
			<output>
				<port id="5" precision="FP32" names="/conv2/conv2.0/gate/gate_activation/OSNet/Sequential[conv2]/OSBlock[0]/ChannelGate[gate]/Sigmoid[gate_activation]/sigmoid_1|OUTPUT/FakeQuantize_output_0">
					<dim>-1</dim>
					<dim>16</dim>
					<dim>1</dim>
					<dim>1</dim>
				</port>
			</output>
		</layer>
		<layer id="187" name="/conv2/conv2.0/gate_1/Mul" type="Multiply" version="opset1">
			<data auto_broadcast="numpy" />
			<input>
				<port id="0" precision="FP32">
					<dim>-1</dim>
					<dim>16</dim>
					<dim>64</dim>
					<dim>32</dim>
				</port>
				<port id="1" precision="FP32">
					<dim>-1</dim>
					<dim>16</dim>
					<dim>1</dim>
					<dim>1</dim>
				</port>
			</input>
			<output>
				<port id="2" precision="FP32" names="/conv2/conv2.0/gate_1/Mul_output_0">
					<dim>-1</dim>
					<dim>16</dim>
					<dim>64</dim>
					<dim>32</dim>
				</port>
			</output>
		</layer>
		<layer id="188" name="Constant_36495" type="Const" version="opset1">
			<data element_type="f32" shape="1, 1, 1, 1" offset="2488" size="4" />
			<output>
				<port id="0" precision="FP32">
					<dim>1</dim>
					<dim>1</dim>
					<dim>1</dim>
					<dim>1</dim>
				</port>
			</output>
		</layer>
		<layer id="189" name="Constant_36496" type="Const" version="opset1">
			<data element_type="f32" shape="1, 1, 1, 1" offset="5500" size="4" />
			<output>
				<port id="0" precision="FP32">
					<dim>1</dim>
					<dim>1</dim>
					<dim>1</dim>
					<dim>1</dim>
				</port>
			</output>
		</layer>
		<layer id="190" name="Constant_36497" type="Const" version="opset1">
			<data element_type="f32" shape="1, 1, 1, 1" offset="2488" size="4" />
			<output>
				<port id="0" precision="FP32">
					<dim>1</dim>
					<dim>1</dim>
					<dim>1</dim>
					<dim>1</dim>
				</port>
			</output>
		</layer>
		<layer id="191" name="Constant_36498" type="Const" version="opset1">
			<data element_type="f32" shape="1, 1, 1, 1" offset="5500" size="4" />
			<output>
				<port id="0" precision="FP32">
					<dim>1</dim>
					<dim>1</dim>
					<dim>1</dim>
					<dim>1</dim>
				</port>
			</output>
		</layer>
		<layer id="192" name="/conv2/conv2.0/gate/OSNet/Sequential[conv2]/OSBlock[0]/ChannelGate[gate]/__mul___1|OUTPUT/FakeQuantize" type="FakeQuantize" version="opset1">
			<data levels="256" auto_broadcast="numpy" />
			<input>
				<port id="0" precision="FP32">
					<dim>-1</dim>
					<dim>16</dim>
					<dim>64</dim>
					<dim>32</dim>
				</port>
				<port id="1" precision="FP32">
					<dim>1</dim>
					<dim>1</dim>
					<dim>1</dim>
					<dim>1</dim>
				</port>
				<port id="2" precision="FP32">
					<dim>1</dim>
					<dim>1</dim>
					<dim>1</dim>
					<dim>1</dim>
				</port>
				<port id="3" precision="FP32">
					<dim>1</dim>
					<dim>1</dim>
					<dim>1</dim>
					<dim>1</dim>
				</port>
				<port id="4" precision="FP32">
					<dim>1</dim>
					<dim>1</dim>
					<dim>1</dim>
					<dim>1</dim>
				</port>
			</input>
			<output>
				<port id="5" precision="FP32" names="/conv2/conv2.0/gate/OSNet/Sequential[conv2]/OSBlock[0]/ChannelGate[gate]/__mul___1|OUTPUT/FakeQuantize_output_0">
					<dim>-1</dim>
					<dim>16</dim>
					<dim>64</dim>
					<dim>32</dim>
				</port>
			</output>
		</layer>
		<layer id="193" name="/conv2/conv2.0/Add" type="Add" version="opset1">
			<data auto_broadcast="numpy" />
			<input>
				<port id="0" precision="FP32">
					<dim>-1</dim>
					<dim>16</dim>
					<dim>64</dim>
					<dim>32</dim>
				</port>
				<port id="1" precision="FP32">
					<dim>-1</dim>
					<dim>16</dim>
					<dim>64</dim>
					<dim>32</dim>
				</port>
			</input>
			<output>
				<port id="2" precision="FP32" names="/conv2/conv2.0/Add_output_0">
					<dim>-1</dim>
					<dim>16</dim>
					<dim>64</dim>
					<dim>32</dim>
				</port>
			</output>
		</layer>
		<layer id="194" name="Constant_36499" type="Const" version="opset1">
			<data element_type="f32" shape="1, 1, 1, 1" offset="2488" size="4" />
			<output>
				<port id="0" precision="FP32">
					<dim>1</dim>
					<dim>1</dim>
					<dim>1</dim>
					<dim>1</dim>
				</port>
			</output>
		</layer>
		<layer id="195" name="Constant_36500" type="Const" version="opset1">
			<data element_type="f32" shape="1, 1, 1, 1" offset="5504" size="4" />
			<output>
				<port id="0" precision="FP32">
					<dim>1</dim>
					<dim>1</dim>
					<dim>1</dim>
					<dim>1</dim>
				</port>
			</output>
		</layer>
		<layer id="196" name="Constant_36501" type="Const" version="opset1">
			<data element_type="f32" shape="1, 1, 1, 1" offset="2488" size="4" />
			<output>
				<port id="0" precision="FP32">
					<dim>1</dim>
					<dim>1</dim>
					<dim>1</dim>
					<dim>1</dim>
				</port>
			</output>
		</layer>
		<layer id="197" name="Constant_36502" type="Const" version="opset1">
			<data element_type="f32" shape="1, 1, 1, 1" offset="5504" size="4" />
			<output>
				<port id="0" precision="FP32">
					<dim>1</dim>
					<dim>1</dim>
					<dim>1</dim>
					<dim>1</dim>
				</port>
			</output>
		</layer>
		<layer id="198" name="/conv2/conv2.0/OSNet/Sequential[conv2]/OSBlock[0]/__add___0|OUTPUT/FakeQuantize" type="FakeQuantize" version="opset1">
			<data levels="256" auto_broadcast="numpy" />
			<input>
				<port id="0" precision="FP32">
					<dim>-1</dim>
					<dim>16</dim>
					<dim>64</dim>
					<dim>32</dim>
				</port>
				<port id="1" precision="FP32">
					<dim>1</dim>
					<dim>1</dim>
					<dim>1</dim>
					<dim>1</dim>
				</port>
				<port id="2" precision="FP32">
					<dim>1</dim>
					<dim>1</dim>
					<dim>1</dim>
					<dim>1</dim>
				</port>
				<port id="3" precision="FP32">
					<dim>1</dim>
					<dim>1</dim>
					<dim>1</dim>
					<dim>1</dim>
				</port>
				<port id="4" precision="FP32">
					<dim>1</dim>
					<dim>1</dim>
					<dim>1</dim>
					<dim>1</dim>
				</port>
			</input>
			<output>
				<port id="5" precision="FP32" names="/conv2/conv2.0/OSNet/Sequential[conv2]/OSBlock[0]/__add___0|OUTPUT/FakeQuantize_output_0">
					<dim>-1</dim>
					<dim>16</dim>
					<dim>64</dim>
					<dim>32</dim>
				</port>
			</output>
		</layer>
		<layer id="199" name="/conv2/conv2.0/conv2c/conv2c.0/conv1/pre_ops.0/op/Constant" type="Const" version="opset1">
			<data element_type="i8" shape="16, 16, 1, 1" offset="5508" size="256" />
			<output>
				<port id="0" precision="I8">
					<dim>16</dim>
					<dim>16</dim>
					<dim>1</dim>
					<dim>1</dim>
				</port>
			</output>
		</layer>
		<layer id="200" name="Convert_44340" type="Convert" version="opset1">
			<data destination_type="f32" />
			<input>
				<port id="0" precision="I8">
					<dim>16</dim>
					<dim>16</dim>
					<dim>1</dim>
					<dim>1</dim>
				</port>
			</input>
			<output>
				<port id="1" precision="FP32">
					<dim>16</dim>
					<dim>16</dim>
					<dim>1</dim>
					<dim>1</dim>
				</port>
			</output>
		</layer>
		<layer id="201" name="Constant_44238" type="Const" version="opset1">
			<data element_type="f32" shape="16, 1, 1, 1" offset="5764" size="64" />
			<output>
				<port id="0" precision="FP32">
					<dim>16</dim>
					<dim>1</dim>
					<dim>1</dim>
					<dim>1</dim>
				</port>
			</output>
		</layer>
		<layer id="202" name="/conv2/conv2.0/conv2c/conv2c.0/conv1/pre_ops.0/op/FakeQuantize" type="Multiply" version="opset1">
			<data auto_broadcast="numpy" />
			<input>
				<port id="0" precision="FP32">
					<dim>16</dim>
					<dim>16</dim>
					<dim>1</dim>
					<dim>1</dim>
				</port>
				<port id="1" precision="FP32">
					<dim>16</dim>
					<dim>1</dim>
					<dim>1</dim>
					<dim>1</dim>
				</port>
			</input>
			<output>
				<port id="2" precision="FP32" names="/conv2/conv2.0/conv2c/conv2c.0/conv1/pre_ops.0/op/FakeQuantize_output_0">
					<dim>16</dim>
					<dim>16</dim>
					<dim>1</dim>
					<dim>1</dim>
				</port>
			</output>
		</layer>
		<layer id="203" name="/conv2/conv2.0/conv2c/conv2c.0/conv1/Conv" type="Convolution" version="opset1">
			<data strides="1, 1" dilations="1, 1" pads_begin="0, 0" pads_end="0, 0" auto_pad="explicit" />
			<input>
				<port id="0" precision="FP32">
					<dim>-1</dim>
					<dim>16</dim>
					<dim>64</dim>
					<dim>32</dim>
				</port>
				<port id="1" precision="FP32">
					<dim>16</dim>
					<dim>16</dim>
					<dim>1</dim>
					<dim>1</dim>
				</port>
			</input>
			<output>
				<port id="2" precision="FP32" names="/conv2/conv2.0/conv2c/conv2c.0/conv1/Conv_output_0">
					<dim>-1</dim>
					<dim>16</dim>
					<dim>64</dim>
					<dim>32</dim>
				</port>
			</output>
		</layer>
		<layer id="204" name="/conv2/conv2.0/conv2c/conv2c.0/conv1/OSNet/Sequential[conv2]/OSBlock[0]/Sequential[conv2c]/LightConv3x3[0]/NNCFConv2d[conv1]/conv2d_0|OUTPUT/Constant" type="Const" version="opset1">
			<data element_type="f32" shape="1, 16, 1, 1" offset="5828" size="64" />
			<output>
				<port id="0" precision="FP32" names="/conv2/conv2.0/conv2c/conv2c.0/conv1/OSNet/Sequential[conv2]/OSBlock[0]/Sequential[conv2c]/LightConv3x3[0]/NNCFConv2d[conv1]/conv2d_0|OUTPUT/Constant_output_0">
					<dim>1</dim>
					<dim>16</dim>
					<dim>1</dim>
					<dim>1</dim>
				</port>
			</output>
		</layer>
		<layer id="205" name="/conv2/conv2.0/conv2c/conv2c.0/conv1/OSNet/Sequential[conv2]/OSBlock[0]/Sequential[conv2c]/LightConv3x3[0]/NNCFConv2d[conv1]/conv2d_0|OUTPUT/Constant_1" type="Const" version="opset1">
			<data element_type="f32" shape="1, 16, 1, 1" offset="5892" size="64" />
			<output>
				<port id="0" precision="FP32" names="/conv2/conv2.0/conv2c/conv2c.0/conv1/OSNet/Sequential[conv2]/OSBlock[0]/Sequential[conv2c]/LightConv3x3[0]/NNCFConv2d[conv1]/conv2d_0|OUTPUT/Constant_1_output_0">
					<dim>1</dim>
					<dim>16</dim>
					<dim>1</dim>
					<dim>1</dim>
				</port>
			</output>
		</layer>
		<layer id="206" name="/conv2/conv2.0/conv2c/conv2c.0/conv1/OSNet/Sequential[conv2]/OSBlock[0]/Sequential[conv2c]/LightConv3x3[0]/NNCFConv2d[conv1]/conv2d_0|OUTPUT/FakeQuantize" type="FakeQuantize" version="opset1">
			<data levels="256" auto_broadcast="numpy" />
			<input>
				<port id="0" precision="FP32">
					<dim>-1</dim>
					<dim>16</dim>
					<dim>64</dim>
					<dim>32</dim>
				</port>
				<port id="1" precision="FP32">
					<dim>1</dim>
					<dim>16</dim>
					<dim>1</dim>
					<dim>1</dim>
				</port>
				<port id="2" precision="FP32">
					<dim>1</dim>
					<dim>16</dim>
					<dim>1</dim>
					<dim>1</dim>
				</port>
				<port id="3" precision="FP32">
					<dim>1</dim>
					<dim>16</dim>
					<dim>1</dim>
					<dim>1</dim>
				</port>
				<port id="4" precision="FP32">
					<dim>1</dim>
					<dim>16</dim>
					<dim>1</dim>
					<dim>1</dim>
				</port>
			</input>
			<output>
				<port id="5" precision="FP32" names="/conv2/conv2.0/conv2c/conv2c.0/conv1/OSNet/Sequential[conv2]/OSBlock[0]/Sequential[conv2c]/LightConv3x3[0]/NNCFConv2d[conv1]/conv2d_0|OUTPUT/FakeQuantize_output_0">
					<dim>-1</dim>
					<dim>16</dim>
					<dim>64</dim>
					<dim>32</dim>
				</port>
			</output>
		</layer>
		<layer id="207" name="/conv2/conv2.0/conv2c/conv2c.0/conv2/pre_ops.0/op/Constant" type="Const" version="opset1">
			<data element_type="i8" shape="16, 1, 3, 3" offset="5956" size="144" />
			<output>
				<port id="0" precision="I8">
					<dim>16</dim>
					<dim>1</dim>
					<dim>3</dim>
					<dim>3</dim>
				</port>
			</output>
		</layer>
		<layer id="208" name="Convert_44494" type="Convert" version="opset1">
			<data destination_type="f32" />
			<input>
				<port id="0" precision="I8">
					<dim>16</dim>
					<dim>1</dim>
					<dim>3</dim>
					<dim>3</dim>
				</port>
			</input>
			<output>
				<port id="1" precision="FP32">
					<dim>16</dim>
					<dim>1</dim>
					<dim>3</dim>
					<dim>3</dim>
				</port>
			</output>
		</layer>
		<layer id="209" name="Constant_44392" type="Const" version="opset1">
			<data element_type="f32" shape="16, 1, 1, 1" offset="6100" size="64" />
			<output>
				<port id="0" precision="FP32">
					<dim>16</dim>
					<dim>1</dim>
					<dim>1</dim>
					<dim>1</dim>
				</port>
			</output>
		</layer>
		<layer id="210" name="/conv2/conv2.0/conv2c/conv2c.0/conv2/pre_ops.0/op/FakeQuantize" type="Multiply" version="opset1">
			<data auto_broadcast="numpy" />
			<input>
				<port id="0" precision="FP32">
					<dim>16</dim>
					<dim>1</dim>
					<dim>3</dim>
					<dim>3</dim>
				</port>
				<port id="1" precision="FP32">
					<dim>16</dim>
					<dim>1</dim>
					<dim>1</dim>
					<dim>1</dim>
				</port>
			</input>
			<output>
				<port id="2" precision="FP32" names="/conv2/conv2.0/conv2c/conv2c.0/conv2/pre_ops.0/op/FakeQuantize_output_0">
					<dim>16</dim>
					<dim>1</dim>
					<dim>3</dim>
					<dim>3</dim>
				</port>
			</output>
		</layer>
		<layer id="211" name="Reshape_35094" type="Const" version="opset1">
			<data element_type="f32" shape="16, 1, 1, 1" offset="6164" size="64" />
			<output>
				<port id="0" precision="FP32">
					<dim>16</dim>
					<dim>1</dim>
					<dim>1</dim>
					<dim>1</dim>
				</port>
			</output>
		</layer>
		<layer id="212" name="Multiply_35097" type="Multiply" version="opset1">
			<data auto_broadcast="numpy" />
			<input>
				<port id="0" precision="FP32">
					<dim>16</dim>
					<dim>1</dim>
					<dim>3</dim>
					<dim>3</dim>
				</port>
				<port id="1" precision="FP32">
					<dim>16</dim>
					<dim>1</dim>
					<dim>1</dim>
					<dim>1</dim>
				</port>
			</input>
			<output>
				<port id="2" precision="FP32">
					<dim>16</dim>
					<dim>1</dim>
					<dim>3</dim>
					<dim>3</dim>
				</port>
			</output>
		</layer>
		<layer id="213" name="Constant_14238" type="Const" version="opset1">
			<data element_type="i64" shape="1" offset="3604" size="8" />
			<output>
				<port id="0" precision="I64">
					<dim>1</dim>
				</port>
			</output>
		</layer>
		<layer id="214" name="ShapeOf_14239" type="ShapeOf" version="opset3">
			<data output_type="i64" />
			<input>
				<port id="0" precision="FP32">
					<dim>16</dim>
					<dim>1</dim>
					<dim>3</dim>
					<dim>3</dim>
				</port>
			</input>
			<output>
				<port id="1" precision="I64">
					<dim>4</dim>
				</port>
			</output>
		</layer>
		<layer id="215" name="Constant_14236" type="Const" version="opset1">
			<data element_type="i64" shape="" offset="3612" size="8" />
			<output>
				<port id="0" precision="I64" />
			</output>
		</layer>
		<layer id="216" name="Constant_14237" type="Const" version="opset1">
			<data element_type="i64" shape="2" offset="3620" size="16" />
			<output>
				<port id="0" precision="I64">
					<dim>2</dim>
				</port>
			</output>
		</layer>
		<layer id="217" name="VariadicSplit_14240" type="VariadicSplit" version="opset1">
			<input>
				<port id="0" precision="I64">
					<dim>4</dim>
				</port>
				<port id="1" precision="I64" />
				<port id="2" precision="I64">
					<dim>2</dim>
				</port>
			</input>
			<output>
				<port id="3" precision="I64">
					<dim>1</dim>
				</port>
				<port id="4" precision="I64">
					<dim>3</dim>
				</port>
			</output>
		</layer>
		<layer id="218" name="Divide_14241" type="Divide" version="opset1">
			<data auto_broadcast="numpy" m_pythondiv="true" />
			<input>
				<port id="0" precision="I64">
					<dim>1</dim>
				</port>
				<port id="1" precision="I64">
					<dim>1</dim>
				</port>
			</input>
			<output>
				<port id="2" precision="I64">
					<dim>1</dim>
				</port>
			</output>
		</layer>
		<layer id="219" name="Concat_14242" type="Concat" version="opset1">
			<data axis="0" />
			<input>
				<port id="0" precision="I64">
					<dim>1</dim>
				</port>
				<port id="1" precision="I64">
					<dim>1</dim>
				</port>
				<port id="2" precision="I64">
					<dim>3</dim>
				</port>
			</input>
			<output>
				<port id="3" precision="I64">
					<dim>5</dim>
				</port>
			</output>
		</layer>
		<layer id="220" name="Reshape_14243" type="Reshape" version="opset1">
			<data special_zero="false" />
			<input>
				<port id="0" precision="FP32">
					<dim>16</dim>
					<dim>1</dim>
					<dim>3</dim>
					<dim>3</dim>
				</port>
				<port id="1" precision="I64">
					<dim>5</dim>
				</port>
			</input>
			<output>
				<port id="2" precision="FP32">
					<dim>16</dim>
					<dim>1</dim>
					<dim>1</dim>
					<dim>3</dim>
					<dim>3</dim>
				</port>
			</output>
		</layer>
		<layer id="221" name="Multiply_34538" type="GroupConvolution" version="opset1">
			<data strides="1, 1" pads_begin="1, 1" pads_end="1, 1" dilations="1, 1" auto_pad="explicit" />
			<input>
				<port id="0" precision="FP32">
					<dim>-1</dim>
					<dim>16</dim>
					<dim>64</dim>
					<dim>32</dim>
				</port>
				<port id="1" precision="FP32">
					<dim>16</dim>
					<dim>1</dim>
					<dim>1</dim>
					<dim>3</dim>
					<dim>3</dim>
				</port>
			</input>
			<output>
				<port id="2" precision="FP32" names="/conv2/conv2.0/conv2c/conv2c.0/conv2/Conv_output_0">
					<dim>-1</dim>
					<dim>16</dim>
					<dim>64</dim>
					<dim>32</dim>
				</port>
			</output>
		</layer>
		<layer id="222" name="Constant_34543" type="Const" version="opset1">
			<data element_type="f32" shape="1, 16, 1, 1" offset="6228" size="64" />
			<output>
				<port id="0" precision="FP32">
					<dim>1</dim>
					<dim>16</dim>
					<dim>1</dim>
					<dim>1</dim>
				</port>
			</output>
		</layer>
		<layer id="223" name="/conv2/conv2.0/conv2c/conv2c.0/bn/BatchNormalization" type="Add" version="opset1">
			<data auto_broadcast="numpy" />
			<input>
				<port id="0" precision="FP32">
					<dim>-1</dim>
					<dim>16</dim>
					<dim>64</dim>
					<dim>32</dim>
				</port>
				<port id="1" precision="FP32">
					<dim>1</dim>
					<dim>16</dim>
					<dim>1</dim>
					<dim>1</dim>
				</port>
			</input>
			<output>
				<port id="2" precision="FP32" names="/conv2/conv2.0/conv2c/conv2c.0/bn/BatchNormalization_output_0">
					<dim>-1</dim>
					<dim>16</dim>
					<dim>64</dim>
					<dim>32</dim>
				</port>
			</output>
		</layer>
		<layer id="224" name="Constant_36503" type="Const" version="opset1">
			<data element_type="f32" shape="1, 1, 1, 1" offset="2488" size="4" />
			<output>
				<port id="0" precision="FP32">
					<dim>1</dim>
					<dim>1</dim>
					<dim>1</dim>
					<dim>1</dim>
				</port>
			</output>
		</layer>
		<layer id="225" name="Constant_36504" type="Const" version="opset1">
			<data element_type="f32" shape="1, 1, 1, 1" offset="6292" size="4" />
			<output>
				<port id="0" precision="FP32">
					<dim>1</dim>
					<dim>1</dim>
					<dim>1</dim>
					<dim>1</dim>
				</port>
			</output>
		</layer>
		<layer id="226" name="Constant_36505" type="Const" version="opset1">
			<data element_type="f32" shape="1, 1, 1, 1" offset="2488" size="4" />
			<output>
				<port id="0" precision="FP32">
					<dim>1</dim>
					<dim>1</dim>
					<dim>1</dim>
					<dim>1</dim>
				</port>
			</output>
		</layer>
		<layer id="227" name="Constant_36506" type="Const" version="opset1">
			<data element_type="f32" shape="1, 1, 1, 1" offset="6292" size="4" />
			<output>
				<port id="0" precision="FP32">
					<dim>1</dim>
					<dim>1</dim>
					<dim>1</dim>
					<dim>1</dim>
				</port>
			</output>
		</layer>
		<layer id="228" name="/conv2/conv2.0/conv2c/conv2c.0/relu/OSNet/Sequential[conv2]/OSBlock[0]/Sequential[conv2c]/LightConv3x3[0]/ReLU[relu]/relu__0|OUTPUT/FakeQuantize" type="FakeQuantize" version="opset1">
			<data levels="256" auto_broadcast="numpy" />
			<input>
				<port id="0" precision="FP32">
					<dim>-1</dim>
					<dim>16</dim>
					<dim>64</dim>
					<dim>32</dim>
				</port>
				<port id="1" precision="FP32">
					<dim>1</dim>
					<dim>1</dim>
					<dim>1</dim>
					<dim>1</dim>
				</port>
				<port id="2" precision="FP32">
					<dim>1</dim>
					<dim>1</dim>
					<dim>1</dim>
					<dim>1</dim>
				</port>
				<port id="3" precision="FP32">
					<dim>1</dim>
					<dim>1</dim>
					<dim>1</dim>
					<dim>1</dim>
				</port>
				<port id="4" precision="FP32">
					<dim>1</dim>
					<dim>1</dim>
					<dim>1</dim>
					<dim>1</dim>
				</port>
			</input>
			<output>
				<port id="5" precision="FP32" names="/conv2/conv2.0/conv2c/conv2c.0/relu/OSNet/Sequential[conv2]/OSBlock[0]/Sequential[conv2c]/LightConv3x3[0]/ReLU[relu]/relu__0|OUTPUT/FakeQuantize_output_0">
					<dim>-1</dim>
					<dim>16</dim>
					<dim>64</dim>
					<dim>32</dim>
				</port>
			</output>
		</layer>
		<layer id="229" name="/conv2/conv2.0/conv2c/conv2c.1/conv1/pre_ops.0/op/Constant" type="Const" version="opset1">
			<data element_type="i8" shape="16, 16, 1, 1" offset="6296" size="256" />
			<output>
				<port id="0" precision="I8">
					<dim>16</dim>
					<dim>16</dim>
					<dim>1</dim>
					<dim>1</dim>
				</port>
			</output>
		</layer>
		<layer id="230" name="Convert_44648" type="Convert" version="opset1">
			<data destination_type="f32" />
			<input>
				<port id="0" precision="I8">
					<dim>16</dim>
					<dim>16</dim>
					<dim>1</dim>
					<dim>1</dim>
				</port>
			</input>
			<output>
				<port id="1" precision="FP32">
					<dim>16</dim>
					<dim>16</dim>
					<dim>1</dim>
					<dim>1</dim>
				</port>
			</output>
		</layer>
		<layer id="231" name="Constant_44546" type="Const" version="opset1">
			<data element_type="f32" shape="16, 1, 1, 1" offset="6552" size="64" />
			<output>
				<port id="0" precision="FP32">
					<dim>16</dim>
					<dim>1</dim>
					<dim>1</dim>
					<dim>1</dim>
				</port>
			</output>
		</layer>
		<layer id="232" name="/conv2/conv2.0/conv2c/conv2c.1/conv1/pre_ops.0/op/FakeQuantize" type="Multiply" version="opset1">
			<data auto_broadcast="numpy" />
			<input>
				<port id="0" precision="FP32">
					<dim>16</dim>
					<dim>16</dim>
					<dim>1</dim>
					<dim>1</dim>
				</port>
				<port id="1" precision="FP32">
					<dim>16</dim>
					<dim>1</dim>
					<dim>1</dim>
					<dim>1</dim>
				</port>
			</input>
			<output>
				<port id="2" precision="FP32" names="/conv2/conv2.0/conv2c/conv2c.1/conv1/pre_ops.0/op/FakeQuantize_output_0">
					<dim>16</dim>
					<dim>16</dim>
					<dim>1</dim>
					<dim>1</dim>
				</port>
			</output>
		</layer>
		<layer id="233" name="/conv2/conv2.0/conv2c/conv2c.1/conv1/Conv" type="Convolution" version="opset1">
			<data strides="1, 1" dilations="1, 1" pads_begin="0, 0" pads_end="0, 0" auto_pad="explicit" />
			<input>
				<port id="0" precision="FP32">
					<dim>-1</dim>
					<dim>16</dim>
					<dim>64</dim>
					<dim>32</dim>
				</port>
				<port id="1" precision="FP32">
					<dim>16</dim>
					<dim>16</dim>
					<dim>1</dim>
					<dim>1</dim>
				</port>
			</input>
			<output>
				<port id="2" precision="FP32" names="/conv2/conv2.0/conv2c/conv2c.1/conv1/Conv_output_0">
					<dim>-1</dim>
					<dim>16</dim>
					<dim>64</dim>
					<dim>32</dim>
				</port>
			</output>
		</layer>
		<layer id="234" name="/conv2/conv2.0/conv2c/conv2c.1/conv1/OSNet/Sequential[conv2]/OSBlock[0]/Sequential[conv2c]/LightConv3x3[1]/NNCFConv2d[conv1]/conv2d_0|OUTPUT/Constant" type="Const" version="opset1">
			<data element_type="f32" shape="1, 16, 1, 1" offset="6616" size="64" />
			<output>
				<port id="0" precision="FP32" names="/conv2/conv2.0/conv2c/conv2c.1/conv1/OSNet/Sequential[conv2]/OSBlock[0]/Sequential[conv2c]/LightConv3x3[1]/NNCFConv2d[conv1]/conv2d_0|OUTPUT/Constant_output_0">
					<dim>1</dim>
					<dim>16</dim>
					<dim>1</dim>
					<dim>1</dim>
				</port>
			</output>
		</layer>
		<layer id="235" name="/conv2/conv2.0/conv2c/conv2c.1/conv1/OSNet/Sequential[conv2]/OSBlock[0]/Sequential[conv2c]/LightConv3x3[1]/NNCFConv2d[conv1]/conv2d_0|OUTPUT/Constant_1" type="Const" version="opset1">
			<data element_type="f32" shape="1, 16, 1, 1" offset="6680" size="64" />
			<output>
				<port id="0" precision="FP32" names="/conv2/conv2.0/conv2c/conv2c.1/conv1/OSNet/Sequential[conv2]/OSBlock[0]/Sequential[conv2c]/LightConv3x3[1]/NNCFConv2d[conv1]/conv2d_0|OUTPUT/Constant_1_output_0">
					<dim>1</dim>
					<dim>16</dim>
					<dim>1</dim>
					<dim>1</dim>
				</port>
			</output>
		</layer>
		<layer id="236" name="/conv2/conv2.0/conv2c/conv2c.1/conv1/OSNet/Sequential[conv2]/OSBlock[0]/Sequential[conv2c]/LightConv3x3[1]/NNCFConv2d[conv1]/conv2d_0|OUTPUT/FakeQuantize" type="FakeQuantize" version="opset1">
			<data levels="256" auto_broadcast="numpy" />
			<input>
				<port id="0" precision="FP32">
					<dim>-1</dim>
					<dim>16</dim>
					<dim>64</dim>
					<dim>32</dim>
				</port>
				<port id="1" precision="FP32">
					<dim>1</dim>
					<dim>16</dim>
					<dim>1</dim>
					<dim>1</dim>
				</port>
				<port id="2" precision="FP32">
					<dim>1</dim>
					<dim>16</dim>
					<dim>1</dim>
					<dim>1</dim>
				</port>
				<port id="3" precision="FP32">
					<dim>1</dim>
					<dim>16</dim>
					<dim>1</dim>
					<dim>1</dim>
				</port>
				<port id="4" precision="FP32">
					<dim>1</dim>
					<dim>16</dim>
					<dim>1</dim>
					<dim>1</dim>
				</port>
			</input>
			<output>
				<port id="5" precision="FP32" names="/conv2/conv2.0/conv2c/conv2c.1/conv1/OSNet/Sequential[conv2]/OSBlock[0]/Sequential[conv2c]/LightConv3x3[1]/NNCFConv2d[conv1]/conv2d_0|OUTPUT/FakeQuantize_output_0">
					<dim>-1</dim>
					<dim>16</dim>
					<dim>64</dim>
					<dim>32</dim>
				</port>
			</output>
		</layer>
		<layer id="237" name="/conv2/conv2.0/conv2c/conv2c.1/conv2/pre_ops.0/op/Constant" type="Const" version="opset1">
			<data element_type="i8" shape="16, 1, 3, 3" offset="6744" size="144" />
			<output>
				<port id="0" precision="I8">
					<dim>16</dim>
					<dim>1</dim>
					<dim>3</dim>
					<dim>3</dim>
				</port>
			</output>
		</layer>
		<layer id="238" name="Convert_44802" type="Convert" version="opset1">
			<data destination_type="f32" />
			<input>
				<port id="0" precision="I8">
					<dim>16</dim>
					<dim>1</dim>
					<dim>3</dim>
					<dim>3</dim>
				</port>
			</input>
			<output>
				<port id="1" precision="FP32">
					<dim>16</dim>
					<dim>1</dim>
					<dim>3</dim>
					<dim>3</dim>
				</port>
			</output>
		</layer>
		<layer id="239" name="Constant_44700" type="Const" version="opset1">
			<data element_type="f32" shape="16, 1, 1, 1" offset="6888" size="64" />
			<output>
				<port id="0" precision="FP32">
					<dim>16</dim>
					<dim>1</dim>
					<dim>1</dim>
					<dim>1</dim>
				</port>
			</output>
		</layer>
		<layer id="240" name="/conv2/conv2.0/conv2c/conv2c.1/conv2/pre_ops.0/op/FakeQuantize" type="Multiply" version="opset1">
			<data auto_broadcast="numpy" />
			<input>
				<port id="0" precision="FP32">
					<dim>16</dim>
					<dim>1</dim>
					<dim>3</dim>
					<dim>3</dim>
				</port>
				<port id="1" precision="FP32">
					<dim>16</dim>
					<dim>1</dim>
					<dim>1</dim>
					<dim>1</dim>
				</port>
			</input>
			<output>
				<port id="2" precision="FP32" names="/conv2/conv2.0/conv2c/conv2c.1/conv2/pre_ops.0/op/FakeQuantize_output_0">
					<dim>16</dim>
					<dim>1</dim>
					<dim>3</dim>
					<dim>3</dim>
				</port>
			</output>
		</layer>
		<layer id="241" name="Reshape_35099" type="Const" version="opset1">
			<data element_type="f32" shape="16, 1, 1, 1" offset="6952" size="64" />
			<output>
				<port id="0" precision="FP32">
					<dim>16</dim>
					<dim>1</dim>
					<dim>1</dim>
					<dim>1</dim>
				</port>
			</output>
		</layer>
		<layer id="242" name="Multiply_35102" type="Multiply" version="opset1">
			<data auto_broadcast="numpy" />
			<input>
				<port id="0" precision="FP32">
					<dim>16</dim>
					<dim>1</dim>
					<dim>3</dim>
					<dim>3</dim>
				</port>
				<port id="1" precision="FP32">
					<dim>16</dim>
					<dim>1</dim>
					<dim>1</dim>
					<dim>1</dim>
				</port>
			</input>
			<output>
				<port id="2" precision="FP32">
					<dim>16</dim>
					<dim>1</dim>
					<dim>3</dim>
					<dim>3</dim>
				</port>
			</output>
		</layer>
		<layer id="243" name="Constant_14305" type="Const" version="opset1">
			<data element_type="i64" shape="1" offset="3604" size="8" />
			<output>
				<port id="0" precision="I64">
					<dim>1</dim>
				</port>
			</output>
		</layer>
		<layer id="244" name="ShapeOf_14306" type="ShapeOf" version="opset3">
			<data output_type="i64" />
			<input>
				<port id="0" precision="FP32">
					<dim>16</dim>
					<dim>1</dim>
					<dim>3</dim>
					<dim>3</dim>
				</port>
			</input>
			<output>
				<port id="1" precision="I64">
					<dim>4</dim>
				</port>
			</output>
		</layer>
		<layer id="245" name="Constant_14303" type="Const" version="opset1">
			<data element_type="i64" shape="" offset="3612" size="8" />
			<output>
				<port id="0" precision="I64" />
			</output>
		</layer>
		<layer id="246" name="Constant_14304" type="Const" version="opset1">
			<data element_type="i64" shape="2" offset="3620" size="16" />
			<output>
				<port id="0" precision="I64">
					<dim>2</dim>
				</port>
			</output>
		</layer>
		<layer id="247" name="VariadicSplit_14307" type="VariadicSplit" version="opset1">
			<input>
				<port id="0" precision="I64">
					<dim>4</dim>
				</port>
				<port id="1" precision="I64" />
				<port id="2" precision="I64">
					<dim>2</dim>
				</port>
			</input>
			<output>
				<port id="3" precision="I64">
					<dim>1</dim>
				</port>
				<port id="4" precision="I64">
					<dim>3</dim>
				</port>
			</output>
		</layer>
		<layer id="248" name="Divide_14308" type="Divide" version="opset1">
			<data auto_broadcast="numpy" m_pythondiv="true" />
			<input>
				<port id="0" precision="I64">
					<dim>1</dim>
				</port>
				<port id="1" precision="I64">
					<dim>1</dim>
				</port>
			</input>
			<output>
				<port id="2" precision="I64">
					<dim>1</dim>
				</port>
			</output>
		</layer>
		<layer id="249" name="Concat_14309" type="Concat" version="opset1">
			<data axis="0" />
			<input>
				<port id="0" precision="I64">
					<dim>1</dim>
				</port>
				<port id="1" precision="I64">
					<dim>1</dim>
				</port>
				<port id="2" precision="I64">
					<dim>3</dim>
				</port>
			</input>
			<output>
				<port id="3" precision="I64">
					<dim>5</dim>
				</port>
			</output>
		</layer>
		<layer id="250" name="Reshape_14310" type="Reshape" version="opset1">
			<data special_zero="false" />
			<input>
				<port id="0" precision="FP32">
					<dim>16</dim>
					<dim>1</dim>
					<dim>3</dim>
					<dim>3</dim>
				</port>
				<port id="1" precision="I64">
					<dim>5</dim>
				</port>
			</input>
			<output>
				<port id="2" precision="FP32">
					<dim>16</dim>
					<dim>1</dim>
					<dim>1</dim>
					<dim>3</dim>
					<dim>3</dim>
				</port>
			</output>
		</layer>
		<layer id="251" name="Multiply_34545" type="GroupConvolution" version="opset1">
			<data strides="1, 1" pads_begin="1, 1" pads_end="1, 1" dilations="1, 1" auto_pad="explicit" />
			<input>
				<port id="0" precision="FP32">
					<dim>-1</dim>
					<dim>16</dim>
					<dim>64</dim>
					<dim>32</dim>
				</port>
				<port id="1" precision="FP32">
					<dim>16</dim>
					<dim>1</dim>
					<dim>1</dim>
					<dim>3</dim>
					<dim>3</dim>
				</port>
			</input>
			<output>
				<port id="2" precision="FP32" names="/conv2/conv2.0/conv2c/conv2c.1/conv2/Conv_output_0">
					<dim>-1</dim>
					<dim>16</dim>
					<dim>64</dim>
					<dim>32</dim>
				</port>
			</output>
		</layer>
		<layer id="252" name="Constant_34550" type="Const" version="opset1">
			<data element_type="f32" shape="1, 16, 1, 1" offset="7016" size="64" />
			<output>
				<port id="0" precision="FP32">
					<dim>1</dim>
					<dim>16</dim>
					<dim>1</dim>
					<dim>1</dim>
				</port>
			</output>
		</layer>
		<layer id="253" name="/conv2/conv2.0/conv2c/conv2c.1/bn/BatchNormalization" type="Add" version="opset1">
			<data auto_broadcast="numpy" />
			<input>
				<port id="0" precision="FP32">
					<dim>-1</dim>
					<dim>16</dim>
					<dim>64</dim>
					<dim>32</dim>
				</port>
				<port id="1" precision="FP32">
					<dim>1</dim>
					<dim>16</dim>
					<dim>1</dim>
					<dim>1</dim>
				</port>
			</input>
			<output>
				<port id="2" precision="FP32" names="/conv2/conv2.0/conv2c/conv2c.1/bn/BatchNormalization_output_0">
					<dim>-1</dim>
					<dim>16</dim>
					<dim>64</dim>
					<dim>32</dim>
				</port>
			</output>
		</layer>
		<layer id="254" name="Constant_36507" type="Const" version="opset1">
			<data element_type="f32" shape="1, 1, 1, 1" offset="2488" size="4" />
			<output>
				<port id="0" precision="FP32">
					<dim>1</dim>
					<dim>1</dim>
					<dim>1</dim>
					<dim>1</dim>
				</port>
			</output>
		</layer>
		<layer id="255" name="Constant_36508" type="Const" version="opset1">
			<data element_type="f32" shape="1, 1, 1, 1" offset="7080" size="4" />
			<output>
				<port id="0" precision="FP32">
					<dim>1</dim>
					<dim>1</dim>
					<dim>1</dim>
					<dim>1</dim>
				</port>
			</output>
		</layer>
		<layer id="256" name="Constant_36509" type="Const" version="opset1">
			<data element_type="f32" shape="1, 1, 1, 1" offset="2488" size="4" />
			<output>
				<port id="0" precision="FP32">
					<dim>1</dim>
					<dim>1</dim>
					<dim>1</dim>
					<dim>1</dim>
				</port>
			</output>
		</layer>
		<layer id="257" name="Constant_36510" type="Const" version="opset1">
			<data element_type="f32" shape="1, 1, 1, 1" offset="7080" size="4" />
			<output>
				<port id="0" precision="FP32">
					<dim>1</dim>
					<dim>1</dim>
					<dim>1</dim>
					<dim>1</dim>
				</port>
			</output>
		</layer>
		<layer id="258" name="/conv2/conv2.0/conv2c/conv2c.1/relu/OSNet/Sequential[conv2]/OSBlock[0]/Sequential[conv2c]/LightConv3x3[1]/ReLU[relu]/relu__0|OUTPUT/FakeQuantize" type="FakeQuantize" version="opset1">
			<data levels="256" auto_broadcast="numpy" />
			<input>
				<port id="0" precision="FP32">
					<dim>-1</dim>
					<dim>16</dim>
					<dim>64</dim>
					<dim>32</dim>
				</port>
				<port id="1" precision="FP32">
					<dim>1</dim>
					<dim>1</dim>
					<dim>1</dim>
					<dim>1</dim>
				</port>
				<port id="2" precision="FP32">
					<dim>1</dim>
					<dim>1</dim>
					<dim>1</dim>
					<dim>1</dim>
				</port>
				<port id="3" precision="FP32">
					<dim>1</dim>
					<dim>1</dim>
					<dim>1</dim>
					<dim>1</dim>
				</port>
				<port id="4" precision="FP32">
					<dim>1</dim>
					<dim>1</dim>
					<dim>1</dim>
					<dim>1</dim>
				</port>
			</input>
			<output>
				<port id="5" precision="FP32" names="/conv2/conv2.0/conv2c/conv2c.1/relu/OSNet/Sequential[conv2]/OSBlock[0]/Sequential[conv2c]/LightConv3x3[1]/ReLU[relu]/relu__0|OUTPUT/FakeQuantize_output_0">
					<dim>-1</dim>
					<dim>16</dim>
					<dim>64</dim>
					<dim>32</dim>
				</port>
			</output>
		</layer>
		<layer id="259" name="/conv2/conv2.0/conv2c/conv2c.2/conv1/pre_ops.0/op/Constant" type="Const" version="opset1">
			<data element_type="i8" shape="16, 16, 1, 1" offset="7084" size="256" />
			<output>
				<port id="0" precision="I8">
					<dim>16</dim>
					<dim>16</dim>
					<dim>1</dim>
					<dim>1</dim>
				</port>
			</output>
		</layer>
		<layer id="260" name="Convert_44956" type="Convert" version="opset1">
			<data destination_type="f32" />
			<input>
				<port id="0" precision="I8">
					<dim>16</dim>
					<dim>16</dim>
					<dim>1</dim>
					<dim>1</dim>
				</port>
			</input>
			<output>
				<port id="1" precision="FP32">
					<dim>16</dim>
					<dim>16</dim>
					<dim>1</dim>
					<dim>1</dim>
				</port>
			</output>
		</layer>
		<layer id="261" name="Constant_44854" type="Const" version="opset1">
			<data element_type="f32" shape="16, 1, 1, 1" offset="7340" size="64" />
			<output>
				<port id="0" precision="FP32">
					<dim>16</dim>
					<dim>1</dim>
					<dim>1</dim>
					<dim>1</dim>
				</port>
			</output>
		</layer>
		<layer id="262" name="/conv2/conv2.0/conv2c/conv2c.2/conv1/pre_ops.0/op/FakeQuantize" type="Multiply" version="opset1">
			<data auto_broadcast="numpy" />
			<input>
				<port id="0" precision="FP32">
					<dim>16</dim>
					<dim>16</dim>
					<dim>1</dim>
					<dim>1</dim>
				</port>
				<port id="1" precision="FP32">
					<dim>16</dim>
					<dim>1</dim>
					<dim>1</dim>
					<dim>1</dim>
				</port>
			</input>
			<output>
				<port id="2" precision="FP32" names="/conv2/conv2.0/conv2c/conv2c.2/conv1/pre_ops.0/op/FakeQuantize_output_0">
					<dim>16</dim>
					<dim>16</dim>
					<dim>1</dim>
					<dim>1</dim>
				</port>
			</output>
		</layer>
		<layer id="263" name="/conv2/conv2.0/conv2c/conv2c.2/conv1/Conv" type="Convolution" version="opset1">
			<data strides="1, 1" dilations="1, 1" pads_begin="0, 0" pads_end="0, 0" auto_pad="explicit" />
			<input>
				<port id="0" precision="FP32">
					<dim>-1</dim>
					<dim>16</dim>
					<dim>64</dim>
					<dim>32</dim>
				</port>
				<port id="1" precision="FP32">
					<dim>16</dim>
					<dim>16</dim>
					<dim>1</dim>
					<dim>1</dim>
				</port>
			</input>
			<output>
				<port id="2" precision="FP32" names="/conv2/conv2.0/conv2c/conv2c.2/conv1/Conv_output_0">
					<dim>-1</dim>
					<dim>16</dim>
					<dim>64</dim>
					<dim>32</dim>
				</port>
			</output>
		</layer>
		<layer id="264" name="/conv2/conv2.0/conv2c/conv2c.2/conv1/OSNet/Sequential[conv2]/OSBlock[0]/Sequential[conv2c]/LightConv3x3[2]/NNCFConv2d[conv1]/conv2d_0|OUTPUT/Constant" type="Const" version="opset1">
			<data element_type="f32" shape="1, 16, 1, 1" offset="7404" size="64" />
			<output>
				<port id="0" precision="FP32" names="/conv2/conv2.0/conv2c/conv2c.2/conv1/OSNet/Sequential[conv2]/OSBlock[0]/Sequential[conv2c]/LightConv3x3[2]/NNCFConv2d[conv1]/conv2d_0|OUTPUT/Constant_output_0">
					<dim>1</dim>
					<dim>16</dim>
					<dim>1</dim>
					<dim>1</dim>
				</port>
			</output>
		</layer>
		<layer id="265" name="/conv2/conv2.0/conv2c/conv2c.2/conv1/OSNet/Sequential[conv2]/OSBlock[0]/Sequential[conv2c]/LightConv3x3[2]/NNCFConv2d[conv1]/conv2d_0|OUTPUT/Constant_1" type="Const" version="opset1">
			<data element_type="f32" shape="1, 16, 1, 1" offset="7468" size="64" />
			<output>
				<port id="0" precision="FP32" names="/conv2/conv2.0/conv2c/conv2c.2/conv1/OSNet/Sequential[conv2]/OSBlock[0]/Sequential[conv2c]/LightConv3x3[2]/NNCFConv2d[conv1]/conv2d_0|OUTPUT/Constant_1_output_0">
					<dim>1</dim>
					<dim>16</dim>
					<dim>1</dim>
					<dim>1</dim>
				</port>
			</output>
		</layer>
		<layer id="266" name="/conv2/conv2.0/conv2c/conv2c.2/conv1/OSNet/Sequential[conv2]/OSBlock[0]/Sequential[conv2c]/LightConv3x3[2]/NNCFConv2d[conv1]/conv2d_0|OUTPUT/FakeQuantize" type="FakeQuantize" version="opset1">
			<data levels="256" auto_broadcast="numpy" />
			<input>
				<port id="0" precision="FP32">
					<dim>-1</dim>
					<dim>16</dim>
					<dim>64</dim>
					<dim>32</dim>
				</port>
				<port id="1" precision="FP32">
					<dim>1</dim>
					<dim>16</dim>
					<dim>1</dim>
					<dim>1</dim>
				</port>
				<port id="2" precision="FP32">
					<dim>1</dim>
					<dim>16</dim>
					<dim>1</dim>
					<dim>1</dim>
				</port>
				<port id="3" precision="FP32">
					<dim>1</dim>
					<dim>16</dim>
					<dim>1</dim>
					<dim>1</dim>
				</port>
				<port id="4" precision="FP32">
					<dim>1</dim>
					<dim>16</dim>
					<dim>1</dim>
					<dim>1</dim>
				</port>
			</input>
			<output>
				<port id="5" precision="FP32" names="/conv2/conv2.0/conv2c/conv2c.2/conv1/OSNet/Sequential[conv2]/OSBlock[0]/Sequential[conv2c]/LightConv3x3[2]/NNCFConv2d[conv1]/conv2d_0|OUTPUT/FakeQuantize_output_0">
					<dim>-1</dim>
					<dim>16</dim>
					<dim>64</dim>
					<dim>32</dim>
				</port>
			</output>
		</layer>
		<layer id="267" name="/conv2/conv2.0/conv2c/conv2c.2/conv2/pre_ops.0/op/Constant" type="Const" version="opset1">
			<data element_type="i8" shape="16, 1, 3, 3" offset="7532" size="144" />
			<output>
				<port id="0" precision="I8">
					<dim>16</dim>
					<dim>1</dim>
					<dim>3</dim>
					<dim>3</dim>
				</port>
			</output>
		</layer>
		<layer id="268" name="Convert_45110" type="Convert" version="opset1">
			<data destination_type="f32" />
			<input>
				<port id="0" precision="I8">
					<dim>16</dim>
					<dim>1</dim>
					<dim>3</dim>
					<dim>3</dim>
				</port>
			</input>
			<output>
				<port id="1" precision="FP32">
					<dim>16</dim>
					<dim>1</dim>
					<dim>3</dim>
					<dim>3</dim>
				</port>
			</output>
		</layer>
		<layer id="269" name="Constant_45008" type="Const" version="opset1">
			<data element_type="f32" shape="16, 1, 1, 1" offset="7676" size="64" />
			<output>
				<port id="0" precision="FP32">
					<dim>16</dim>
					<dim>1</dim>
					<dim>1</dim>
					<dim>1</dim>
				</port>
			</output>
		</layer>
		<layer id="270" name="/conv2/conv2.0/conv2c/conv2c.2/conv2/pre_ops.0/op/FakeQuantize" type="Multiply" version="opset1">
			<data auto_broadcast="numpy" />
			<input>
				<port id="0" precision="FP32">
					<dim>16</dim>
					<dim>1</dim>
					<dim>3</dim>
					<dim>3</dim>
				</port>
				<port id="1" precision="FP32">
					<dim>16</dim>
					<dim>1</dim>
					<dim>1</dim>
					<dim>1</dim>
				</port>
			</input>
			<output>
				<port id="2" precision="FP32" names="/conv2/conv2.0/conv2c/conv2c.2/conv2/pre_ops.0/op/FakeQuantize_output_0">
					<dim>16</dim>
					<dim>1</dim>
					<dim>3</dim>
					<dim>3</dim>
				</port>
			</output>
		</layer>
		<layer id="271" name="Reshape_35104" type="Const" version="opset1">
			<data element_type="f32" shape="16, 1, 1, 1" offset="7740" size="64" />
			<output>
				<port id="0" precision="FP32">
					<dim>16</dim>
					<dim>1</dim>
					<dim>1</dim>
					<dim>1</dim>
				</port>
			</output>
		</layer>
		<layer id="272" name="Multiply_35107" type="Multiply" version="opset1">
			<data auto_broadcast="numpy" />
			<input>
				<port id="0" precision="FP32">
					<dim>16</dim>
					<dim>1</dim>
					<dim>3</dim>
					<dim>3</dim>
				</port>
				<port id="1" precision="FP32">
					<dim>16</dim>
					<dim>1</dim>
					<dim>1</dim>
					<dim>1</dim>
				</port>
			</input>
			<output>
				<port id="2" precision="FP32">
					<dim>16</dim>
					<dim>1</dim>
					<dim>3</dim>
					<dim>3</dim>
				</port>
			</output>
		</layer>
		<layer id="273" name="Constant_14372" type="Const" version="opset1">
			<data element_type="i64" shape="1" offset="3604" size="8" />
			<output>
				<port id="0" precision="I64">
					<dim>1</dim>
				</port>
			</output>
		</layer>
		<layer id="274" name="ShapeOf_14373" type="ShapeOf" version="opset3">
			<data output_type="i64" />
			<input>
				<port id="0" precision="FP32">
					<dim>16</dim>
					<dim>1</dim>
					<dim>3</dim>
					<dim>3</dim>
				</port>
			</input>
			<output>
				<port id="1" precision="I64">
					<dim>4</dim>
				</port>
			</output>
		</layer>
		<layer id="275" name="Constant_14370" type="Const" version="opset1">
			<data element_type="i64" shape="" offset="3612" size="8" />
			<output>
				<port id="0" precision="I64" />
			</output>
		</layer>
		<layer id="276" name="Constant_14371" type="Const" version="opset1">
			<data element_type="i64" shape="2" offset="3620" size="16" />
			<output>
				<port id="0" precision="I64">
					<dim>2</dim>
				</port>
			</output>
		</layer>
		<layer id="277" name="VariadicSplit_14374" type="VariadicSplit" version="opset1">
			<input>
				<port id="0" precision="I64">
					<dim>4</dim>
				</port>
				<port id="1" precision="I64" />
				<port id="2" precision="I64">
					<dim>2</dim>
				</port>
			</input>
			<output>
				<port id="3" precision="I64">
					<dim>1</dim>
				</port>
				<port id="4" precision="I64">
					<dim>3</dim>
				</port>
			</output>
		</layer>
		<layer id="278" name="Divide_14375" type="Divide" version="opset1">
			<data auto_broadcast="numpy" m_pythondiv="true" />
			<input>
				<port id="0" precision="I64">
					<dim>1</dim>
				</port>
				<port id="1" precision="I64">
					<dim>1</dim>
				</port>
			</input>
			<output>
				<port id="2" precision="I64">
					<dim>1</dim>
				</port>
			</output>
		</layer>
		<layer id="279" name="Concat_14376" type="Concat" version="opset1">
			<data axis="0" />
			<input>
				<port id="0" precision="I64">
					<dim>1</dim>
				</port>
				<port id="1" precision="I64">
					<dim>1</dim>
				</port>
				<port id="2" precision="I64">
					<dim>3</dim>
				</port>
			</input>
			<output>
				<port id="3" precision="I64">
					<dim>5</dim>
				</port>
			</output>
		</layer>
		<layer id="280" name="Reshape_14377" type="Reshape" version="opset1">
			<data special_zero="false" />
			<input>
				<port id="0" precision="FP32">
					<dim>16</dim>
					<dim>1</dim>
					<dim>3</dim>
					<dim>3</dim>
				</port>
				<port id="1" precision="I64">
					<dim>5</dim>
				</port>
			</input>
			<output>
				<port id="2" precision="FP32">
					<dim>16</dim>
					<dim>1</dim>
					<dim>1</dim>
					<dim>3</dim>
					<dim>3</dim>
				</port>
			</output>
		</layer>
		<layer id="281" name="Multiply_34552" type="GroupConvolution" version="opset1">
			<data strides="1, 1" pads_begin="1, 1" pads_end="1, 1" dilations="1, 1" auto_pad="explicit" />
			<input>
				<port id="0" precision="FP32">
					<dim>-1</dim>
					<dim>16</dim>
					<dim>64</dim>
					<dim>32</dim>
				</port>
				<port id="1" precision="FP32">
					<dim>16</dim>
					<dim>1</dim>
					<dim>1</dim>
					<dim>3</dim>
					<dim>3</dim>
				</port>
			</input>
			<output>
				<port id="2" precision="FP32" names="/conv2/conv2.0/conv2c/conv2c.2/conv2/Conv_output_0">
					<dim>-1</dim>
					<dim>16</dim>
					<dim>64</dim>
					<dim>32</dim>
				</port>
			</output>
		</layer>
		<layer id="282" name="Constant_34557" type="Const" version="opset1">
			<data element_type="f32" shape="1, 16, 1, 1" offset="7804" size="64" />
			<output>
				<port id="0" precision="FP32">
					<dim>1</dim>
					<dim>16</dim>
					<dim>1</dim>
					<dim>1</dim>
				</port>
			</output>
		</layer>
		<layer id="283" name="/conv2/conv2.0/conv2c/conv2c.2/bn/BatchNormalization" type="Add" version="opset1">
			<data auto_broadcast="numpy" />
			<input>
				<port id="0" precision="FP32">
					<dim>-1</dim>
					<dim>16</dim>
					<dim>64</dim>
					<dim>32</dim>
				</port>
				<port id="1" precision="FP32">
					<dim>1</dim>
					<dim>16</dim>
					<dim>1</dim>
					<dim>1</dim>
				</port>
			</input>
			<output>
				<port id="2" precision="FP32" names="/conv2/conv2.0/conv2c/conv2c.2/bn/BatchNormalization_output_0">
					<dim>-1</dim>
					<dim>16</dim>
					<dim>64</dim>
					<dim>32</dim>
				</port>
			</output>
		</layer>
		<layer id="284" name="Constant_36511" type="Const" version="opset1">
			<data element_type="f32" shape="1, 1, 1, 1" offset="2488" size="4" />
			<output>
				<port id="0" precision="FP32">
					<dim>1</dim>
					<dim>1</dim>
					<dim>1</dim>
					<dim>1</dim>
				</port>
			</output>
		</layer>
		<layer id="285" name="Constant_36512" type="Const" version="opset1">
			<data element_type="f32" shape="1, 1, 1, 1" offset="7868" size="4" />
			<output>
				<port id="0" precision="FP32">
					<dim>1</dim>
					<dim>1</dim>
					<dim>1</dim>
					<dim>1</dim>
				</port>
			</output>
		</layer>
		<layer id="286" name="Constant_36513" type="Const" version="opset1">
			<data element_type="f32" shape="1, 1, 1, 1" offset="2488" size="4" />
			<output>
				<port id="0" precision="FP32">
					<dim>1</dim>
					<dim>1</dim>
					<dim>1</dim>
					<dim>1</dim>
				</port>
			</output>
		</layer>
		<layer id="287" name="Constant_36514" type="Const" version="opset1">
			<data element_type="f32" shape="1, 1, 1, 1" offset="7868" size="4" />
			<output>
				<port id="0" precision="FP32">
					<dim>1</dim>
					<dim>1</dim>
					<dim>1</dim>
					<dim>1</dim>
				</port>
			</output>
		</layer>
		<layer id="288" name="/conv2/conv2.0/conv2c/conv2c.2/relu/OSNet/Sequential[conv2]/OSBlock[0]/Sequential[conv2c]/LightConv3x3[2]/ReLU[relu]/relu__0|OUTPUT/FakeQuantize" type="FakeQuantize" version="opset1">
			<data levels="256" auto_broadcast="numpy" />
			<input>
				<port id="0" precision="FP32">
					<dim>-1</dim>
					<dim>16</dim>
					<dim>64</dim>
					<dim>32</dim>
				</port>
				<port id="1" precision="FP32">
					<dim>1</dim>
					<dim>1</dim>
					<dim>1</dim>
					<dim>1</dim>
				</port>
				<port id="2" precision="FP32">
					<dim>1</dim>
					<dim>1</dim>
					<dim>1</dim>
					<dim>1</dim>
				</port>
				<port id="3" precision="FP32">
					<dim>1</dim>
					<dim>1</dim>
					<dim>1</dim>
					<dim>1</dim>
				</port>
				<port id="4" precision="FP32">
					<dim>1</dim>
					<dim>1</dim>
					<dim>1</dim>
					<dim>1</dim>
				</port>
			</input>
			<output>
				<port id="5" precision="FP32" names="/conv2/conv2.0/conv2c/conv2c.2/relu/OSNet/Sequential[conv2]/OSBlock[0]/Sequential[conv2c]/LightConv3x3[2]/ReLU[relu]/relu__0|OUTPUT/FakeQuantize_output_0">
					<dim>-1</dim>
					<dim>16</dim>
					<dim>64</dim>
					<dim>32</dim>
				</port>
			</output>
		</layer>
		<layer id="289" name="Range_14812" type="Const" version="opset1">
			<data element_type="i64" shape="2" offset="3704" size="16" />
			<output>
				<port id="0" precision="I64">
					<dim>2</dim>
				</port>
			</output>
		</layer>
		<layer id="290" name="/conv2/conv2.0/gate/global_avgpool_2/GlobalAveragePool" type="ReduceMean" version="opset1">
			<data keep_dims="true" />
			<input>
				<port id="0" precision="FP32">
					<dim>-1</dim>
					<dim>16</dim>
					<dim>64</dim>
					<dim>32</dim>
				</port>
				<port id="1" precision="I64">
					<dim>2</dim>
				</port>
			</input>
			<output>
				<port id="2" precision="FP32" names="/conv2/conv2.0/gate/global_avgpool_2/GlobalAveragePool_output_0">
					<dim>-1</dim>
					<dim>16</dim>
					<dim>1</dim>
					<dim>1</dim>
				</port>
			</output>
		</layer>
		<layer id="291" name="Constant_36515" type="Const" version="opset1">
			<data element_type="f32" shape="1, 1, 1, 1" offset="2488" size="4" />
			<output>
				<port id="0" precision="FP32">
					<dim>1</dim>
					<dim>1</dim>
					<dim>1</dim>
					<dim>1</dim>
				</port>
			</output>
		</layer>
		<layer id="292" name="Constant_36516" type="Const" version="opset1">
			<data element_type="f32" shape="1, 1, 1, 1" offset="7872" size="4" />
			<output>
				<port id="0" precision="FP32">
					<dim>1</dim>
					<dim>1</dim>
					<dim>1</dim>
					<dim>1</dim>
				</port>
			</output>
		</layer>
		<layer id="293" name="Constant_36517" type="Const" version="opset1">
			<data element_type="f32" shape="1, 1, 1, 1" offset="2488" size="4" />
			<output>
				<port id="0" precision="FP32">
					<dim>1</dim>
					<dim>1</dim>
					<dim>1</dim>
					<dim>1</dim>
				</port>
			</output>
		</layer>
		<layer id="294" name="Constant_36518" type="Const" version="opset1">
			<data element_type="f32" shape="1, 1, 1, 1" offset="7872" size="4" />
			<output>
				<port id="0" precision="FP32">
					<dim>1</dim>
					<dim>1</dim>
					<dim>1</dim>
					<dim>1</dim>
				</port>
			</output>
		</layer>
		<layer id="295" name="/conv2/conv2.0/gate/global_avgpool/OSNet/Sequential[conv2]/OSBlock[0]/ChannelGate[gate]/AdaptiveAvgPool2d[global_avgpool]/adaptive_avg_pool2d_2|OUTPUT/FakeQuantize" type="FakeQuantize" version="opset1">
			<data levels="256" auto_broadcast="numpy" />
			<input>
				<port id="0" precision="FP32">
					<dim>-1</dim>
					<dim>16</dim>
					<dim>1</dim>
					<dim>1</dim>
				</port>
				<port id="1" precision="FP32">
					<dim>1</dim>
					<dim>1</dim>
					<dim>1</dim>
					<dim>1</dim>
				</port>
				<port id="2" precision="FP32">
					<dim>1</dim>
					<dim>1</dim>
					<dim>1</dim>
					<dim>1</dim>
				</port>
				<port id="3" precision="FP32">
					<dim>1</dim>
					<dim>1</dim>
					<dim>1</dim>
					<dim>1</dim>
				</port>
				<port id="4" precision="FP32">
					<dim>1</dim>
					<dim>1</dim>
					<dim>1</dim>
					<dim>1</dim>
				</port>
			</input>
			<output>
				<port id="5" precision="FP32" names="/conv2/conv2.0/gate/global_avgpool/OSNet/Sequential[conv2]/OSBlock[0]/ChannelGate[gate]/AdaptiveAvgPool2d[global_avgpool]/adaptive_avg_pool2d_2|OUTPUT/FakeQuantize_output_0">
					<dim>-1</dim>
					<dim>16</dim>
					<dim>1</dim>
					<dim>1</dim>
				</port>
			</output>
		</layer>
		<layer id="296" name="/conv2/conv2.0/gate/fc1/pre_ops.0/op/Constant1" type="Const" version="opset1">
			<data element_type="i8" shape="1, 16, 1, 1" offset="3724" size="16" />
			<output>
				<port id="0" precision="I8">
					<dim>1</dim>
					<dim>16</dim>
					<dim>1</dim>
					<dim>1</dim>
				</port>
			</output>
		</layer>
		<layer id="297" name="Convert_45264" type="Convert" version="opset1">
			<data destination_type="f32" />
			<input>
				<port id="0" precision="I8">
					<dim>1</dim>
					<dim>16</dim>
					<dim>1</dim>
					<dim>1</dim>
				</port>
			</input>
			<output>
				<port id="1" precision="FP32">
					<dim>1</dim>
					<dim>16</dim>
					<dim>1</dim>
					<dim>1</dim>
				</port>
			</output>
		</layer>
		<layer id="298" name="Constant_45162" type="Const" version="opset1">
			<data element_type="f32" shape="1, 1, 1, 1" offset="3740" size="4" />
			<output>
				<port id="0" precision="FP32">
					<dim>1</dim>
					<dim>1</dim>
					<dim>1</dim>
					<dim>1</dim>
				</port>
			</output>
		</layer>
		<layer id="299" name="/conv2/conv2.0/gate/fc1/pre_ops.0/op_2/FakeQuantize" type="Multiply" version="opset1">
			<data auto_broadcast="numpy" />
			<input>
				<port id="0" precision="FP32">
					<dim>1</dim>
					<dim>16</dim>
					<dim>1</dim>
					<dim>1</dim>
				</port>
				<port id="1" precision="FP32">
					<dim>1</dim>
					<dim>1</dim>
					<dim>1</dim>
					<dim>1</dim>
				</port>
			</input>
			<output>
				<port id="2" precision="FP32" names="/conv2/conv2.0/gate/fc1/pre_ops.0/op_2/FakeQuantize_output_0">
					<dim>1</dim>
					<dim>16</dim>
					<dim>1</dim>
					<dim>1</dim>
				</port>
			</output>
		</layer>
		<layer id="300" name="/conv2/conv2.0/gate/fc1_2/Conv/WithoutBiases" type="Convolution" version="opset1">
			<data strides="1, 1" dilations="1, 1" pads_begin="0, 0" pads_end="0, 0" auto_pad="explicit" />
			<input>
				<port id="0" precision="FP32">
					<dim>-1</dim>
					<dim>16</dim>
					<dim>1</dim>
					<dim>1</dim>
				</port>
				<port id="1" precision="FP32">
					<dim>1</dim>
					<dim>16</dim>
					<dim>1</dim>
					<dim>1</dim>
				</port>
			</input>
			<output>
				<port id="2" precision="FP32">
					<dim>-1</dim>
					<dim>1</dim>
					<dim>1</dim>
					<dim>1</dim>
				</port>
			</output>
		</layer>
		<layer id="301" name="Constant_36196" type="Const" version="opset1">
			<data element_type="f32" shape="1, 1, 1, 1" offset="3744" size="4" />
			<output>
				<port id="0" precision="FP32">
					<dim>1</dim>
					<dim>1</dim>
					<dim>1</dim>
					<dim>1</dim>
				</port>
			</output>
		</layer>
		<layer id="302" name="Constant_36198" type="Const" version="opset1">
			<data element_type="f32" shape="1, 1, 1, 1" offset="7876" size="4" />
			<output>
				<port id="0" precision="FP32">
					<dim>1</dim>
					<dim>1</dim>
					<dim>1</dim>
					<dim>1</dim>
				</port>
			</output>
		</layer>
		<layer id="303" name="Constant_36519" type="Const" version="opset1">
			<data element_type="f32" shape="1, 1, 1, 1" offset="2488" size="4" />
			<output>
				<port id="0" precision="FP32">
					<dim>1</dim>
					<dim>1</dim>
					<dim>1</dim>
					<dim>1</dim>
				</port>
			</output>
		</layer>
		<layer id="304" name="Constant_36520" type="Const" version="opset1">
			<data element_type="f32" shape="1, 1, 1, 1" offset="7880" size="4" />
			<output>
				<port id="0" precision="FP32">
					<dim>1</dim>
					<dim>1</dim>
					<dim>1</dim>
					<dim>1</dim>
				</port>
			</output>
		</layer>
		<layer id="305" name="/conv2/conv2.0/gate/relu/OSNet/Sequential[conv2]/OSBlock[0]/ChannelGate[gate]/ReLU[relu]/relu__2|OUTPUT/FakeQuantize" type="FakeQuantize" version="opset1">
			<data levels="256" auto_broadcast="numpy" />
			<input>
				<port id="0" precision="FP32">
					<dim>-1</dim>
					<dim>1</dim>
					<dim>1</dim>
					<dim>1</dim>
				</port>
				<port id="1" precision="FP32">
					<dim>1</dim>
					<dim>1</dim>
					<dim>1</dim>
					<dim>1</dim>
				</port>
				<port id="2" precision="FP32">
					<dim>1</dim>
					<dim>1</dim>
					<dim>1</dim>
					<dim>1</dim>
				</port>
				<port id="3" precision="FP32">
					<dim>1</dim>
					<dim>1</dim>
					<dim>1</dim>
					<dim>1</dim>
				</port>
				<port id="4" precision="FP32">
					<dim>1</dim>
					<dim>1</dim>
					<dim>1</dim>
					<dim>1</dim>
				</port>
			</input>
			<output>
				<port id="5" precision="FP32" names="/conv2/conv2.0/gate/relu/OSNet/Sequential[conv2]/OSBlock[0]/ChannelGate[gate]/ReLU[relu]/relu__2|OUTPUT/FakeQuantize_output_0">
					<dim>-1</dim>
					<dim>1</dim>
					<dim>1</dim>
					<dim>1</dim>
				</port>
			</output>
		</layer>
		<layer id="306" name="/conv2/conv2.0/gate/fc2/pre_ops.0/op/Constant1" type="Const" version="opset1">
			<data element_type="i8" shape="16, 1, 1, 1" offset="3756" size="16" />
			<output>
				<port id="0" precision="I8">
					<dim>16</dim>
					<dim>1</dim>
					<dim>1</dim>
					<dim>1</dim>
				</port>
			</output>
		</layer>
		<layer id="307" name="Convert_45418" type="Convert" version="opset1">
			<data destination_type="f32" />
			<input>
				<port id="0" precision="I8">
					<dim>16</dim>
					<dim>1</dim>
					<dim>1</dim>
					<dim>1</dim>
				</port>
			</input>
			<output>
				<port id="1" precision="FP32">
					<dim>16</dim>
					<dim>1</dim>
					<dim>1</dim>
					<dim>1</dim>
				</port>
			</output>
		</layer>
		<layer id="308" name="Constant_45316" type="Const" version="opset1">
			<data element_type="f32" shape="16, 1, 1, 1" offset="3772" size="64" />
			<output>
				<port id="0" precision="FP32">
					<dim>16</dim>
					<dim>1</dim>
					<dim>1</dim>
					<dim>1</dim>
				</port>
			</output>
		</layer>
		<layer id="309" name="/conv2/conv2.0/gate/fc2/pre_ops.0/op_2/FakeQuantize" type="Multiply" version="opset1">
			<data auto_broadcast="numpy" />
			<input>
				<port id="0" precision="FP32">
					<dim>16</dim>
					<dim>1</dim>
					<dim>1</dim>
					<dim>1</dim>
				</port>
				<port id="1" precision="FP32">
					<dim>16</dim>
					<dim>1</dim>
					<dim>1</dim>
					<dim>1</dim>
				</port>
			</input>
			<output>
				<port id="2" precision="FP32" names="/conv2/conv2.0/gate/fc2/pre_ops.0/op_2/FakeQuantize_output_0">
					<dim>16</dim>
					<dim>1</dim>
					<dim>1</dim>
					<dim>1</dim>
				</port>
			</output>
		</layer>
		<layer id="310" name="/conv2/conv2.0/gate/fc2_2/Conv/WithoutBiases" type="Convolution" version="opset1">
			<data strides="1, 1" dilations="1, 1" pads_begin="0, 0" pads_end="0, 0" auto_pad="explicit" />
			<input>
				<port id="0" precision="FP32">
					<dim>-1</dim>
					<dim>1</dim>
					<dim>1</dim>
					<dim>1</dim>
				</port>
				<port id="1" precision="FP32">
					<dim>16</dim>
					<dim>1</dim>
					<dim>1</dim>
					<dim>1</dim>
				</port>
			</input>
			<output>
				<port id="2" precision="FP32">
					<dim>-1</dim>
					<dim>16</dim>
					<dim>1</dim>
					<dim>1</dim>
				</port>
			</output>
		</layer>
		<layer id="311" name="Reshape_14849" type="Const" version="opset1">
			<data element_type="f32" shape="1, 16, 1, 1" offset="3836" size="64" />
			<output>
				<port id="0" precision="FP32">
					<dim>1</dim>
					<dim>16</dim>
					<dim>1</dim>
					<dim>1</dim>
				</port>
			</output>
		</layer>
		<layer id="312" name="/conv2/conv2.0/gate/fc2_2/Conv" type="Add" version="opset1">
			<data auto_broadcast="numpy" />
			<input>
				<port id="0" precision="FP32">
					<dim>-1</dim>
					<dim>16</dim>
					<dim>1</dim>
					<dim>1</dim>
				</port>
				<port id="1" precision="FP32">
					<dim>1</dim>
					<dim>16</dim>
					<dim>1</dim>
					<dim>1</dim>
				</port>
			</input>
			<output>
				<port id="2" precision="FP32" names="/conv2/conv2.0/gate/fc2_2/Conv_output_0">
					<dim>-1</dim>
					<dim>16</dim>
					<dim>1</dim>
					<dim>1</dim>
				</port>
			</output>
		</layer>
		<layer id="313" name="/conv2/conv2.0/gate/gate_activation_2/Sigmoid" type="Sigmoid" version="opset1">
			<input>
				<port id="0" precision="FP32">
					<dim>-1</dim>
					<dim>16</dim>
					<dim>1</dim>
					<dim>1</dim>
				</port>
			</input>
			<output>
				<port id="1" precision="FP32" names="/conv2/conv2.0/gate/gate_activation_2/Sigmoid_output_0">
					<dim>-1</dim>
					<dim>16</dim>
					<dim>1</dim>
					<dim>1</dim>
				</port>
			</output>
		</layer>
		<layer id="314" name="Constant_36521" type="Const" version="opset1">
			<data element_type="f32" shape="1, 1, 1, 1" offset="2488" size="4" />
			<output>
				<port id="0" precision="FP32">
					<dim>1</dim>
					<dim>1</dim>
					<dim>1</dim>
					<dim>1</dim>
				</port>
			</output>
		</layer>
		<layer id="315" name="Constant_36522" type="Const" version="opset1">
			<data element_type="f32" shape="1, 1, 1, 1" offset="7884" size="4" />
			<output>
				<port id="0" precision="FP32">
					<dim>1</dim>
					<dim>1</dim>
					<dim>1</dim>
					<dim>1</dim>
				</port>
			</output>
		</layer>
		<layer id="316" name="Constant_36523" type="Const" version="opset1">
			<data element_type="f32" shape="1, 1, 1, 1" offset="2488" size="4" />
			<output>
				<port id="0" precision="FP32">
					<dim>1</dim>
					<dim>1</dim>
					<dim>1</dim>
					<dim>1</dim>
				</port>
			</output>
		</layer>
		<layer id="317" name="Constant_36524" type="Const" version="opset1">
			<data element_type="f32" shape="1, 1, 1, 1" offset="7884" size="4" />
			<output>
				<port id="0" precision="FP32">
					<dim>1</dim>
					<dim>1</dim>
					<dim>1</dim>
					<dim>1</dim>
				</port>
			</output>
		</layer>
		<layer id="318" name="/conv2/conv2.0/gate/gate_activation/OSNet/Sequential[conv2]/OSBlock[0]/ChannelGate[gate]/Sigmoid[gate_activation]/sigmoid_2|OUTPUT/FakeQuantize" type="FakeQuantize" version="opset1">
			<data levels="256" auto_broadcast="numpy" />
			<input>
				<port id="0" precision="FP32">
					<dim>-1</dim>
					<dim>16</dim>
					<dim>1</dim>
					<dim>1</dim>
				</port>
				<port id="1" precision="FP32">
					<dim>1</dim>
					<dim>1</dim>
					<dim>1</dim>
					<dim>1</dim>
				</port>
				<port id="2" precision="FP32">
					<dim>1</dim>
					<dim>1</dim>
					<dim>1</dim>
					<dim>1</dim>
				</port>
				<port id="3" precision="FP32">
					<dim>1</dim>
					<dim>1</dim>
					<dim>1</dim>
					<dim>1</dim>
				</port>
				<port id="4" precision="FP32">
					<dim>1</dim>
					<dim>1</dim>
					<dim>1</dim>
					<dim>1</dim>
				</port>
			</input>
			<output>
				<port id="5" precision="FP32" names="/conv2/conv2.0/gate/gate_activation/OSNet/Sequential[conv2]/OSBlock[0]/ChannelGate[gate]/Sigmoid[gate_activation]/sigmoid_2|OUTPUT/FakeQuantize_output_0">
					<dim>-1</dim>
					<dim>16</dim>
					<dim>1</dim>
					<dim>1</dim>
				</port>
			</output>
		</layer>
		<layer id="319" name="/conv2/conv2.0/gate_2/Mul" type="Multiply" version="opset1">
			<data auto_broadcast="numpy" />
			<input>
				<port id="0" precision="FP32">
					<dim>-1</dim>
					<dim>16</dim>
					<dim>64</dim>
					<dim>32</dim>
				</port>
				<port id="1" precision="FP32">
					<dim>-1</dim>
					<dim>16</dim>
					<dim>1</dim>
					<dim>1</dim>
				</port>
			</input>
			<output>
				<port id="2" precision="FP32" names="/conv2/conv2.0/gate_2/Mul_output_0">
					<dim>-1</dim>
					<dim>16</dim>
					<dim>64</dim>
					<dim>32</dim>
				</port>
			</output>
		</layer>
		<layer id="320" name="Constant_36525" type="Const" version="opset1">
			<data element_type="f32" shape="1, 1, 1, 1" offset="2488" size="4" />
			<output>
				<port id="0" precision="FP32">
					<dim>1</dim>
					<dim>1</dim>
					<dim>1</dim>
					<dim>1</dim>
				</port>
			</output>
		</layer>
		<layer id="321" name="Constant_36526" type="Const" version="opset1">
			<data element_type="f32" shape="1, 1, 1, 1" offset="7888" size="4" />
			<output>
				<port id="0" precision="FP32">
					<dim>1</dim>
					<dim>1</dim>
					<dim>1</dim>
					<dim>1</dim>
				</port>
			</output>
		</layer>
		<layer id="322" name="Constant_36527" type="Const" version="opset1">
			<data element_type="f32" shape="1, 1, 1, 1" offset="2488" size="4" />
			<output>
				<port id="0" precision="FP32">
					<dim>1</dim>
					<dim>1</dim>
					<dim>1</dim>
…
		<edge from-layer="2434" from-port="2" to-layer="2435" to-port="1" />
		<edge from-layer="2435" from-port="3" to-layer="2436" to-port="1" />
		<edge from-layer="2436" from-port="2" to-layer="2437" to-port="1" />
		<edge from-layer="2437" from-port="2" to-layer="2439" to-port="0" />
		<edge from-layer="2438" from-port="0" to-layer="2439" to-port="1" />
		<edge from-layer="2439" from-port="2" to-layer="2444" to-port="0" />
		<edge from-layer="2440" from-port="0" to-layer="2444" to-port="1" />
		<edge from-layer="2441" from-port="0" to-layer="2444" to-port="2" />
		<edge from-layer="2442" from-port="0" to-layer="2444" to-port="3" />
		<edge from-layer="2443" from-port="0" to-layer="2444" to-port="4" />
		<edge from-layer="2444" from-port="5" to-layer="2449" to-port="0" />
		<edge from-layer="2445" from-port="0" to-layer="2446" to-port="0" />
		<edge from-layer="2446" from-port="1" to-layer="2448" to-port="0" />
		<edge from-layer="2447" from-port="0" to-layer="2448" to-port="1" />
		<edge from-layer="2448" from-port="2" to-layer="2449" to-port="1" />
		<edge from-layer="2449" from-port="2" to-layer="2452" to-port="0" />
		<edge from-layer="2450" from-port="0" to-layer="2452" to-port="1" />
		<edge from-layer="2450" from-port="0" to-layer="2452" to-port="3" />
		<edge from-layer="2451" from-port="0" to-layer="2452" to-port="4" />
		<edge from-layer="2451" from-port="0" to-layer="2452" to-port="2" />
		<edge from-layer="2452" from-port="5" to-layer="2467" to-port="0" />
		<edge from-layer="2453" from-port="0" to-layer="2454" to-port="0" />
		<edge from-layer="2454" from-port="1" to-layer="2456" to-port="0" />
		<edge from-layer="2455" from-port="0" to-layer="2456" to-port="1" />
		<edge from-layer="2456" from-port="2" to-layer="2460" to-port="0" />
		<edge from-layer="2456" from-port="2" to-layer="2458" to-port="0" />
		<edge from-layer="2457" from-port="0" to-layer="2458" to-port="1" />
		<edge from-layer="2458" from-port="2" to-layer="2466" to-port="0" />
		<edge from-layer="2459" from-port="0" to-layer="2465" to-port="0" />
		<edge from-layer="2459" from-port="0" to-layer="2464" to-port="1" />
		<edge from-layer="2460" from-port="1" to-layer="2463" to-port="0" />
		<edge from-layer="2461" from-port="0" to-layer="2463" to-port="1" />
		<edge from-layer="2462" from-port="0" to-layer="2463" to-port="2" />
		<edge from-layer="2463" from-port="4" to-layer="2465" to-port="2" />
		<edge from-layer="2463" from-port="3" to-layer="2464" to-port="0" />
		<edge from-layer="2464" from-port="2" to-layer="2465" to-port="1" />
		<edge from-layer="2465" from-port="3" to-layer="2466" to-port="1" />
		<edge from-layer="2466" from-port="2" to-layer="2467" to-port="1" />
		<edge from-layer="2467" from-port="2" to-layer="2469" to-port="0" />
		<edge from-layer="2468" from-port="0" to-layer="2469" to-port="1" />
		<edge from-layer="2469" from-port="2" to-layer="2474" to-port="0" />
		<edge from-layer="2470" from-port="0" to-layer="2474" to-port="1" />
		<edge from-layer="2471" from-port="0" to-layer="2474" to-port="2" />
		<edge from-layer="2472" from-port="0" to-layer="2474" to-port="3" />
		<edge from-layer="2473" from-port="0" to-layer="2474" to-port="4" />
		<edge from-layer="2474" from-port="5" to-layer="2507" to-port="0" />
		<edge from-layer="2474" from-port="5" to-layer="2476" to-port="0" />
		<edge from-layer="2475" from-port="0" to-layer="2476" to-port="1" />
		<edge from-layer="2476" from-port="2" to-layer="2481" to-port="0" />
		<edge from-layer="2477" from-port="0" to-layer="2481" to-port="1" />
		<edge from-layer="2478" from-port="0" to-layer="2481" to-port="2" />
		<edge from-layer="2479" from-port="0" to-layer="2481" to-port="3" />
		<edge from-layer="2480" from-port="0" to-layer="2481" to-port="4" />
		<edge from-layer="2481" from-port="5" to-layer="2486" to-port="0" />
		<edge from-layer="2482" from-port="0" to-layer="2483" to-port="0" />
		<edge from-layer="2483" from-port="1" to-layer="2485" to-port="0" />
		<edge from-layer="2484" from-port="0" to-layer="2485" to-port="1" />
		<edge from-layer="2485" from-port="2" to-layer="2486" to-port="1" />
		<edge from-layer="2486" from-port="2" to-layer="2488" to-port="0" />
		<edge from-layer="2487" from-port="0" to-layer="2488" to-port="1" />
		<edge from-layer="2488" from-port="2" to-layer="2493" to-port="0" />
		<edge from-layer="2489" from-port="0" to-layer="2493" to-port="1" />
		<edge from-layer="2490" from-port="0" to-layer="2493" to-port="2" />
		<edge from-layer="2491" from-port="0" to-layer="2493" to-port="3" />
		<edge from-layer="2492" from-port="0" to-layer="2493" to-port="4" />
		<edge from-layer="2493" from-port="5" to-layer="2498" to-port="0" />
		<edge from-layer="2494" from-port="0" to-layer="2495" to-port="0" />
		<edge from-layer="2495" from-port="1" to-layer="2497" to-port="0" />
		<edge from-layer="2496" from-port="0" to-layer="2497" to-port="1" />
		<edge from-layer="2497" from-port="2" to-layer="2498" to-port="1" />
		<edge from-layer="2498" from-port="2" to-layer="2500" to-port="0" />
		<edge from-layer="2499" from-port="0" to-layer="2500" to-port="1" />
		<edge from-layer="2500" from-port="2" to-layer="2501" to-port="0" />
		<edge from-layer="2501" from-port="1" to-layer="2506" to-port="0" />
		<edge from-layer="2502" from-port="0" to-layer="2506" to-port="1" />
		<edge from-layer="2503" from-port="0" to-layer="2506" to-port="2" />
		<edge from-layer="2504" from-port="0" to-layer="2506" to-port="3" />
		<edge from-layer="2505" from-port="0" to-layer="2506" to-port="4" />
		<edge from-layer="2506" from-port="5" to-layer="2507" to-port="1" />
		<edge from-layer="2507" from-port="2" to-layer="2512" to-port="0" />
		<edge from-layer="2508" from-port="0" to-layer="2512" to-port="1" />
		<edge from-layer="2509" from-port="0" to-layer="2512" to-port="2" />
		<edge from-layer="2510" from-port="0" to-layer="2512" to-port="3" />
		<edge from-layer="2511" from-port="0" to-layer="2512" to-port="4" />
		<edge from-layer="2512" from-port="5" to-layer="2513" to-port="1" />
		<edge from-layer="2513" from-port="2" to-layer="2518" to-port="0" />
		<edge from-layer="2514" from-port="0" to-layer="2518" to-port="1" />
		<edge from-layer="2515" from-port="0" to-layer="2518" to-port="2" />
		<edge from-layer="2516" from-port="0" to-layer="2518" to-port="3" />
		<edge from-layer="2517" from-port="0" to-layer="2518" to-port="4" />
		<edge from-layer="2518" from-port="5" to-layer="2523" to-port="0" />
		<edge from-layer="2519" from-port="0" to-layer="2520" to-port="0" />
		<edge from-layer="2520" from-port="1" to-layer="2522" to-port="0" />
		<edge from-layer="2521" from-port="0" to-layer="2522" to-port="1" />
		<edge from-layer="2522" from-port="2" to-layer="2523" to-port="1" />
		<edge from-layer="2523" from-port="2" to-layer="2525" to-port="0" />
		<edge from-layer="2524" from-port="0" to-layer="2525" to-port="1" />
		<edge from-layer="2525" from-port="2" to-layer="2530" to-port="0" />
		<edge from-layer="2526" from-port="0" to-layer="2530" to-port="1" />
		<edge from-layer="2527" from-port="0" to-layer="2530" to-port="2" />
		<edge from-layer="2528" from-port="0" to-layer="2530" to-port="3" />
		<edge from-layer="2529" from-port="0" to-layer="2530" to-port="4" />
		<edge from-layer="2530" from-port="5" to-layer="2543" to-port="0" />
		<edge from-layer="2531" from-port="0" to-layer="2532" to-port="0" />
		<edge from-layer="2532" from-port="1" to-layer="2534" to-port="0" />
		<edge from-layer="2533" from-port="0" to-layer="2534" to-port="1" />
		<edge from-layer="2534" from-port="2" to-layer="2535" to-port="1" />
		<edge from-layer="2535" from-port="2" to-layer="2537" to-port="0" />
		<edge from-layer="2536" from-port="0" to-layer="2537" to-port="1" />
		<edge from-layer="2537" from-port="2" to-layer="2542" to-port="0" />
		<edge from-layer="2538" from-port="0" to-layer="2542" to-port="1" />
		<edge from-layer="2539" from-port="0" to-layer="2542" to-port="2" />
		<edge from-layer="2540" from-port="0" to-layer="2542" to-port="3" />
		<edge from-layer="2541" from-port="0" to-layer="2542" to-port="4" />
		<edge from-layer="2542" from-port="5" to-layer="2543" to-port="1" />
		<edge from-layer="2543" from-port="2" to-layer="2548" to-port="0" />
		<edge from-layer="2544" from-port="0" to-layer="2548" to-port="1" />
		<edge from-layer="2545" from-port="0" to-layer="2548" to-port="2" />
		<edge from-layer="2546" from-port="0" to-layer="2548" to-port="3" />
		<edge from-layer="2547" from-port="0" to-layer="2548" to-port="4" />
		<edge from-layer="2548" from-port="5" to-layer="3035" to-port="1" />
		<edge from-layer="2548" from-port="5" to-layer="2553" to-port="0" />
		<edge from-layer="2549" from-port="0" to-layer="2550" to-port="0" />
		<edge from-layer="2550" from-port="1" to-layer="2552" to-port="0" />
		<edge from-layer="2551" from-port="0" to-layer="2552" to-port="1" />
		<edge from-layer="2552" from-port="2" to-layer="2553" to-port="1" />
		<edge from-layer="2553" from-port="2" to-layer="2555" to-port="0" />
		<edge from-layer="2554" from-port="0" to-layer="2555" to-port="1" />
		<edge from-layer="2555" from-port="2" to-layer="2560" to-port="0" />
		<edge from-layer="2556" from-port="0" to-layer="2560" to-port="1" />
		<edge from-layer="2557" from-port="0" to-layer="2560" to-port="2" />
		<edge from-layer="2558" from-port="0" to-layer="2560" to-port="3" />
		<edge from-layer="2559" from-port="0" to-layer="2560" to-port="4" />
		<edge from-layer="2560" from-port="5" to-layer="2867" to-port="0" />
		<edge from-layer="2560" from-port="5" to-layer="2633" to-port="0" />
		<edge from-layer="2560" from-port="5" to-layer="2565" to-port="0" />
		<edge from-layer="2560" from-port="5" to-layer="2737" to-port="0" />
		<edge from-layer="2561" from-port="0" to-layer="2562" to-port="0" />
		<edge from-layer="2562" from-port="1" to-layer="2564" to-port="0" />
		<edge from-layer="2563" from-port="0" to-layer="2564" to-port="1" />
		<edge from-layer="2564" from-port="2" to-layer="2565" to-port="1" />
		<edge from-layer="2565" from-port="2" to-layer="2568" to-port="0" />
		<edge from-layer="2566" from-port="0" to-layer="2568" to-port="3" />
		<edge from-layer="2566" from-port="0" to-layer="2568" to-port="1" />
		<edge from-layer="2567" from-port="0" to-layer="2568" to-port="4" />
		<edge from-layer="2567" from-port="0" to-layer="2568" to-port="2" />
		<edge from-layer="2568" from-port="5" to-layer="2583" to-port="0" />
		<edge from-layer="2569" from-port="0" to-layer="2570" to-port="0" />
		<edge from-layer="2570" from-port="1" to-layer="2572" to-port="0" />
		<edge from-layer="2571" from-port="0" to-layer="2572" to-port="1" />
		<edge from-layer="2572" from-port="2" to-layer="2576" to-port="0" />
		<edge from-layer="2572" from-port="2" to-layer="2574" to-port="0" />
		<edge from-layer="2573" from-port="0" to-layer="2574" to-port="1" />
		<edge from-layer="2574" from-port="2" to-layer="2582" to-port="0" />
		<edge from-layer="2575" from-port="0" to-layer="2581" to-port="0" />
		<edge from-layer="2575" from-port="0" to-layer="2580" to-port="1" />
		<edge from-layer="2576" from-port="1" to-layer="2579" to-port="0" />
		<edge from-layer="2577" from-port="0" to-layer="2579" to-port="1" />
		<edge from-layer="2578" from-port="0" to-layer="2579" to-port="2" />
		<edge from-layer="2579" from-port="4" to-layer="2581" to-port="2" />
		<edge from-layer="2579" from-port="3" to-layer="2580" to-port="0" />
		<edge from-layer="2580" from-port="2" to-layer="2581" to-port="1" />
		<edge from-layer="2581" from-port="3" to-layer="2582" to-port="1" />
		<edge from-layer="2582" from-port="2" to-layer="2583" to-port="1" />
		<edge from-layer="2583" from-port="2" to-layer="2585" to-port="0" />
		<edge from-layer="2584" from-port="0" to-layer="2585" to-port="1" />
		<edge from-layer="2585" from-port="2" to-layer="2590" to-port="0" />
		<edge from-layer="2586" from-port="0" to-layer="2590" to-port="1" />
		<edge from-layer="2587" from-port="0" to-layer="2590" to-port="2" />
		<edge from-layer="2588" from-port="0" to-layer="2590" to-port="3" />
		<edge from-layer="2589" from-port="0" to-layer="2590" to-port="4" />
		<edge from-layer="2590" from-port="5" to-layer="2592" to-port="0" />
		<edge from-layer="2590" from-port="5" to-layer="2623" to-port="0" />
		<edge from-layer="2591" from-port="0" to-layer="2592" to-port="1" />
		<edge from-layer="2592" from-port="2" to-layer="2597" to-port="0" />
		<edge from-layer="2593" from-port="0" to-layer="2597" to-port="1" />
		<edge from-layer="2594" from-port="0" to-layer="2597" to-port="2" />
		<edge from-layer="2595" from-port="0" to-layer="2597" to-port="3" />
		<edge from-layer="2596" from-port="0" to-layer="2597" to-port="4" />
		<edge from-layer="2597" from-port="5" to-layer="2602" to-port="0" />
		<edge from-layer="2598" from-port="0" to-layer="2599" to-port="0" />
		<edge from-layer="2599" from-port="1" to-layer="2601" to-port="0" />
		<edge from-layer="2600" from-port="0" to-layer="2601" to-port="1" />
		<edge from-layer="2601" from-port="2" to-layer="2602" to-port="1" />
		<edge from-layer="2602" from-port="2" to-layer="2604" to-port="0" />
		<edge from-layer="2603" from-port="0" to-layer="2604" to-port="1" />
		<edge from-layer="2604" from-port="2" to-layer="2609" to-port="0" />
		<edge from-layer="2605" from-port="0" to-layer="2609" to-port="1" />
		<edge from-layer="2606" from-port="0" to-layer="2609" to-port="2" />
		<edge from-layer="2607" from-port="0" to-layer="2609" to-port="3" />
		<edge from-layer="2608" from-port="0" to-layer="2609" to-port="4" />
		<edge from-layer="2609" from-port="5" to-layer="2614" to-port="0" />
		<edge from-layer="2610" from-port="0" to-layer="2611" to-port="0" />
		<edge from-layer="2611" from-port="1" to-layer="2613" to-port="0" />
		<edge from-layer="2612" from-port="0" to-layer="2613" to-port="1" />
		<edge from-layer="2613" from-port="2" to-layer="2614" to-port="1" />
		<edge from-layer="2614" from-port="2" to-layer="2616" to-port="0" />
		<edge from-layer="2615" from-port="0" to-layer="2616" to-port="1" />
		<edge from-layer="2616" from-port="2" to-layer="2617" to-port="0" />
		<edge from-layer="2617" from-port="1" to-layer="2622" to-port="0" />
		<edge from-layer="2618" from-port="0" to-layer="2622" to-port="1" />
		<edge from-layer="2619" from-port="0" to-layer="2622" to-port="2" />
		<edge from-layer="2620" from-port="0" to-layer="2622" to-port="3" />
		<edge from-layer="2621" from-port="0" to-layer="2622" to-port="4" />
		<edge from-layer="2622" from-port="5" to-layer="2623" to-port="1" />
		<edge from-layer="2623" from-port="2" to-layer="2628" to-port="0" />
		<edge from-layer="2624" from-port="0" to-layer="2628" to-port="1" />
		<edge from-layer="2625" from-port="0" to-layer="2628" to-port="2" />
		<edge from-layer="2626" from-port="0" to-layer="2628" to-port="3" />
		<edge from-layer="2627" from-port="0" to-layer="2628" to-port="4" />
		<edge from-layer="2628" from-port="5" to-layer="2727" to-port="0" />
		<edge from-layer="2629" from-port="0" to-layer="2630" to-port="0" />
		<edge from-layer="2630" from-port="1" to-layer="2632" to-port="0" />
		<edge from-layer="2631" from-port="0" to-layer="2632" to-port="1" />
		<edge from-layer="2632" from-port="2" to-layer="2633" to-port="1" />
		<edge from-layer="2633" from-port="2" to-layer="2636" to-port="0" />
		<edge from-layer="2634" from-port="0" to-layer="2636" to-port="1" />
		<edge from-layer="2634" from-port="0" to-layer="2636" to-port="3" />
		<edge from-layer="2635" from-port="0" to-layer="2636" to-port="2" />
		<edge from-layer="2635" from-port="0" to-layer="2636" to-port="4" />
		<edge from-layer="2636" from-port="5" to-layer="2651" to-port="0" />
		<edge from-layer="2637" from-port="0" to-layer="2638" to-port="0" />
		<edge from-layer="2638" from-port="1" to-layer="2640" to-port="0" />
		<edge from-layer="2639" from-port="0" to-layer="2640" to-port="1" />
		<edge from-layer="2640" from-port="2" to-layer="2642" to-port="0" />
		<edge from-layer="2640" from-port="2" to-layer="2644" to-port="0" />
		<edge from-layer="2641" from-port="0" to-layer="2642" to-port="1" />
		<edge from-layer="2642" from-port="2" to-layer="2650" to-port="0" />
		<edge from-layer="2643" from-port="0" to-layer="2649" to-port="0" />
		<edge from-layer="2643" from-port="0" to-layer="2648" to-port="1" />
		<edge from-layer="2644" from-port="1" to-layer="2647" to-port="0" />
		<edge from-layer="2645" from-port="0" to-layer="2647" to-port="1" />
		<edge from-layer="2646" from-port="0" to-layer="2647" to-port="2" />
		<edge from-layer="2647" from-port="3" to-layer="2648" to-port="0" />
		<edge from-layer="2647" from-port="4" to-layer="2649" to-port="2" />
		<edge from-layer="2648" from-port="2" to-layer="2649" to-port="1" />
		<edge from-layer="2649" from-port="3" to-layer="2650" to-port="1" />
		<edge from-layer="2650" from-port="2" to-layer="2651" to-port="1" />
		<edge from-layer="2651" from-port="2" to-layer="2653" to-port="0" />
		<edge from-layer="2652" from-port="0" to-layer="2653" to-port="1" />
		<edge from-layer="2653" from-port="2" to-layer="2658" to-port="0" />
		<edge from-layer="2654" from-port="0" to-layer="2658" to-port="1" />
		<edge from-layer="2655" from-port="0" to-layer="2658" to-port="2" />
		<edge from-layer="2656" from-port="0" to-layer="2658" to-port="3" />
		<edge from-layer="2657" from-port="0" to-layer="2658" to-port="4" />
		<edge from-layer="2658" from-port="5" to-layer="2663" to-port="0" />
		<edge from-layer="2659" from-port="0" to-layer="2660" to-port="0" />
		<edge from-layer="2660" from-port="1" to-layer="2662" to-port="0" />
		<edge from-layer="2661" from-port="0" to-layer="2662" to-port="1" />
		<edge from-layer="2662" from-port="2" to-layer="2663" to-port="1" />
		<edge from-layer="2663" from-port="2" to-layer="2666" to-port="0" />
		<edge from-layer="2664" from-port="0" to-layer="2666" to-port="3" />
		<edge from-layer="2664" from-port="0" to-layer="2666" to-port="1" />
		<edge from-layer="2665" from-port="0" to-layer="2666" to-port="4" />
		<edge from-layer="2665" from-port="0" to-layer="2666" to-port="2" />
		<edge from-layer="2666" from-port="5" to-layer="2681" to-port="0" />
		<edge from-layer="2667" from-port="0" to-layer="2668" to-port="0" />
		<edge from-layer="2668" from-port="1" to-layer="2670" to-port="0" />
		<edge from-layer="2669" from-port="0" to-layer="2670" to-port="1" />
		<edge from-layer="2670" from-port="2" to-layer="2674" to-port="0" />
		<edge from-layer="2670" from-port="2" to-layer="2672" to-port="0" />
		<edge from-layer="2671" from-port="0" to-layer="2672" to-port="1" />
		<edge from-layer="2672" from-port="2" to-layer="2680" to-port="0" />
		<edge from-layer="2673" from-port="0" to-layer="2679" to-port="0" />
		<edge from-layer="2673" from-port="0" to-layer="2678" to-port="1" />
		<edge from-layer="2674" from-port="1" to-layer="2677" to-port="0" />
		<edge from-layer="2675" from-port="0" to-layer="2677" to-port="1" />
		<edge from-layer="2676" from-port="0" to-layer="2677" to-port="2" />
		<edge from-layer="2677" from-port="4" to-layer="2679" to-port="2" />
		<edge from-layer="2677" from-port="3" to-layer="2678" to-port="0" />
		<edge from-layer="2678" from-port="2" to-layer="2679" to-port="1" />
		<edge from-layer="2679" from-port="3" to-layer="2680" to-port="1" />
		<edge from-layer="2680" from-port="2" to-layer="2681" to-port="1" />
		<edge from-layer="2681" from-port="2" to-layer="2683" to-port="0" />
		<edge from-layer="2682" from-port="0" to-layer="2683" to-port="1" />
		<edge from-layer="2683" from-port="2" to-layer="2688" to-port="0" />
		<edge from-layer="2684" from-port="0" to-layer="2688" to-port="1" />
		<edge from-layer="2685" from-port="0" to-layer="2688" to-port="2" />
		<edge from-layer="2686" from-port="0" to-layer="2688" to-port="3" />
		<edge from-layer="2687" from-port="0" to-layer="2688" to-port="4" />
		<edge from-layer="2688" from-port="5" to-layer="2721" to-port="0" />
		<edge from-layer="2688" from-port="5" to-layer="2690" to-port="0" />
		<edge from-layer="2689" from-port="0" to-layer="2690" to-port="1" />
		<edge from-layer="2690" from-port="2" to-layer="2695" to-port="0" />
		<edge from-layer="2691" from-port="0" to-layer="2695" to-port="1" />
		<edge from-layer="2692" from-port="0" to-layer="2695" to-port="2" />
		<edge from-layer="2693" from-port="0" to-layer="2695" to-port="3" />
		<edge from-layer="2694" from-port="0" to-layer="2695" to-port="4" />
		<edge from-layer="2695" from-port="5" to-layer="2700" to-port="0" />
		<edge from-layer="2696" from-port="0" to-layer="2697" to-port="0" />
		<edge from-layer="2697" from-port="1" to-layer="2699" to-port="0" />
		<edge from-layer="2698" from-port="0" to-layer="2699" to-port="1" />
		<edge from-layer="2699" from-port="2" to-layer="2700" to-port="1" />
		<edge from-layer="2700" from-port="2" to-layer="2702" to-port="0" />
		<edge from-layer="2701" from-port="0" to-layer="2702" to-port="1" />
		<edge from-layer="2702" from-port="2" to-layer="2707" to-port="0" />
		<edge from-layer="2703" from-port="0" to-layer="2707" to-port="1" />
		<edge from-layer="2704" from-port="0" to-layer="2707" to-port="2" />
		<edge from-layer="2705" from-port="0" to-layer="2707" to-port="3" />
		<edge from-layer="2706" from-port="0" to-layer="2707" to-port="4" />
		<edge from-layer="2707" from-port="5" to-layer="2712" to-port="0" />
		<edge from-layer="2708" from-port="0" to-layer="2709" to-port="0" />
		<edge from-layer="2709" from-port="1" to-layer="2711" to-port="0" />
		<edge from-layer="2710" from-port="0" to-layer="2711" to-port="1" />
		<edge from-layer="2711" from-port="2" to-layer="2712" to-port="1" />
		<edge from-layer="2712" from-port="2" to-layer="2714" to-port="0" />
		<edge from-layer="2713" from-port="0" to-layer="2714" to-port="1" />
		<edge from-layer="2714" from-port="2" to-layer="2715" to-port="0" />
		<edge from-layer="2715" from-port="1" to-layer="2720" to-port="0" />
		<edge from-layer="2716" from-port="0" to-layer="2720" to-port="1" />
		<edge from-layer="2717" from-port="0" to-layer="2720" to-port="2" />
		<edge from-layer="2718" from-port="0" to-layer="2720" to-port="3" />
		<edge from-layer="2719" from-port="0" to-layer="2720" to-port="4" />
		<edge from-layer="2720" from-port="5" to-layer="2721" to-port="1" />
		<edge from-layer="2721" from-port="2" to-layer="2726" to-port="0" />
		<edge from-layer="2722" from-port="0" to-layer="2726" to-port="1" />
		<edge from-layer="2723" from-port="0" to-layer="2726" to-port="2" />
		<edge from-layer="2724" from-port="0" to-layer="2726" to-port="3" />
		<edge from-layer="2725" from-port="0" to-layer="2726" to-port="4" />
		<edge from-layer="2726" from-port="5" to-layer="2727" to-port="1" />
		<edge from-layer="2727" from-port="2" to-layer="2732" to-port="0" />
		<edge from-layer="2728" from-port="0" to-layer="2732" to-port="1" />
		<edge from-layer="2729" from-port="0" to-layer="2732" to-port="2" />
		<edge from-layer="2730" from-port="0" to-layer="2732" to-port="3" />
		<edge from-layer="2731" from-port="0" to-layer="2732" to-port="4" />
		<edge from-layer="2732" from-port="5" to-layer="2857" to-port="0" />
		<edge from-layer="2733" from-port="0" to-layer="2734" to-port="0" />
		<edge from-layer="2734" from-port="1" to-layer="2736" to-port="0" />
		<edge from-layer="2735" from-port="0" to-layer="2736" to-port="1" />
		<edge from-layer="2736" from-port="2" to-layer="2737" to-port="1" />
		<edge from-layer="2737" from-port="2" to-layer="2740" to-port="0" />
		<edge from-layer="2738" from-port="0" to-layer="2740" to-port="1" />
		<edge from-layer="2738" from-port="0" to-layer="2740" to-port="3" />
		<edge from-layer="2739" from-port="0" to-layer="2740" to-port="2" />
		<edge from-layer="2739" from-port="0" to-layer="2740" to-port="4" />
		<edge from-layer="2740" from-port="5" to-layer="2755" to-port="0" />
		<edge from-layer="2741" from-port="0" to-layer="2742" to-port="0" />
		<edge from-layer="2742" from-port="1" to-layer="2744" to-port="0" />
		<edge from-layer="2743" from-port="0" to-layer="2744" to-port="1" />
		<edge from-layer="2744" from-port="2" to-layer="2748" to-port="0" />
		<edge from-layer="2744" from-port="2" to-layer="2746" to-port="0" />
		<edge from-layer="2745" from-port="0" to-layer="2746" to-port="1" />
		<edge from-layer="2746" from-port="2" to-layer="2754" to-port="0" />
		<edge from-layer="2747" from-port="0" to-layer="2753" to-port="0" />
		<edge from-layer="2747" from-port="0" to-layer="2752" to-port="1" />
		<edge from-layer="2748" from-port="1" to-layer="2751" to-port="0" />
		<edge from-layer="2749" from-port="0" to-layer="2751" to-port="1" />
		<edge from-layer="2750" from-port="0" to-layer="2751" to-port="2" />
		<edge from-layer="2751" from-port="4" to-layer="2753" to-port="2" />
		<edge from-layer="2751" from-port="3" to-layer="2752" to-port="0" />
		<edge from-layer="2752" from-port="2" to-layer="2753" to-port="1" />
		<edge from-layer="2753" from-port="3" to-layer="2754" to-port="1" />
		<edge from-layer="2754" from-port="2" to-layer="2755" to-port="1" />
		<edge from-layer="2755" from-port="2" to-layer="2757" to-port="0" />
		<edge from-layer="2756" from-port="0" to-layer="2757" to-port="1" />
		<edge from-layer="2757" from-port="2" to-layer="2762" to-port="0" />
		<edge from-layer="2758" from-port="0" to-layer="2762" to-port="1" />
		<edge from-layer="2759" from-port="0" to-layer="2762" to-port="2" />
		<edge from-layer="2760" from-port="0" to-layer="2762" to-port="3" />
		<edge from-layer="2761" from-port="0" to-layer="2762" to-port="4" />
		<edge from-layer="2762" from-port="5" to-layer="2767" to-port="0" />
		<edge from-layer="2763" from-port="0" to-layer="2764" to-port="0" />
		<edge from-layer="2764" from-port="1" to-layer="2766" to-port="0" />
		<edge from-layer="2765" from-port="0" to-layer="2766" to-port="1" />
		<edge from-layer="2766" from-port="2" to-layer="2767" to-port="1" />
		<edge from-layer="2767" from-port="2" to-layer="2768" to-port="0" />
		<edge from-layer="2768" from-port="5" to-layer="2783" to-port="0" />
		<edge from-layer="2769" from-port="0" to-layer="2770" to-port="0" />
		<edge from-layer="2770" from-port="1" to-layer="2772" to-port="0" />
		<edge from-layer="2771" from-port="0" to-layer="2772" to-port="1" />
		<edge from-layer="2772" from-port="2" to-layer="2776" to-port="0" />
		<edge from-layer="2772" from-port="2" to-layer="2774" to-port="0" />
		<edge from-layer="2773" from-port="0" to-layer="2774" to-port="1" />
		<edge from-layer="2774" from-port="2" to-layer="2782" to-port="0" />
		<edge from-layer="2775" from-port="0" to-layer="2781" to-port="0" />
		<edge from-layer="2775" from-port="0" to-layer="2780" to-port="1" />
		<edge from-layer="2776" from-port="1" to-layer="2779" to-port="0" />
		<edge from-layer="2777" from-port="0" to-layer="2779" to-port="1" />
		<edge from-layer="2778" from-port="0" to-layer="2779" to-port="2" />
		<edge from-layer="2779" from-port="3" to-layer="2780" to-port="0" />
		<edge from-layer="2779" from-port="4" to-layer="2781" to-port="2" />
		<edge from-layer="2780" from-port="2" to-layer="2781" to-port="1" />
		<edge from-layer="2781" from-port="3" to-layer="2782" to-port="1" />
		<edge from-layer="2782" from-port="2" to-layer="2783" to-port="1" />
		<edge from-layer="2783" from-port="2" to-layer="2785" to-port="0" />
		<edge from-layer="2784" from-port="0" to-layer="2785" to-port="1" />
		<edge from-layer="2785" from-port="2" to-layer="2790" to-port="0" />
		<edge from-layer="2786" from-port="0" to-layer="2790" to-port="1" />
		<edge from-layer="2787" from-port="0" to-layer="2790" to-port="2" />
		<edge from-layer="2788" from-port="0" to-layer="2790" to-port="3" />
		<edge from-layer="2789" from-port="0" to-layer="2790" to-port="4" />
		<edge from-layer="2790" from-port="5" to-layer="2795" to-port="0" />
		<edge from-layer="2791" from-port="0" to-layer="2792" to-port="0" />
		<edge from-layer="2792" from-port="1" to-layer="2794" to-port="0" />
		<edge from-layer="2793" from-port="0" to-layer="2794" to-port="1" />
		<edge from-layer="2794" from-port="2" to-layer="2795" to-port="1" />
		<edge from-layer="2795" from-port="2" to-layer="2796" to-port="0" />
		<edge from-layer="2796" from-port="5" to-layer="2811" to-port="0" />
		<edge from-layer="2797" from-port="0" to-layer="2798" to-port="0" />
		<edge from-layer="2798" from-port="1" to-layer="2800" to-port="0" />
		<edge from-layer="2799" from-port="0" to-layer="2800" to-port="1" />
		<edge from-layer="2800" from-port="2" to-layer="2804" to-port="0" />
		<edge from-layer="2800" from-port="2" to-layer="2802" to-port="0" />
		<edge from-layer="2801" from-port="0" to-layer="2802" to-port="1" />
		<edge from-layer="2802" from-port="2" to-layer="2810" to-port="0" />
		<edge from-layer="2803" from-port="0" to-layer="2808" to-port="1" />
		<edge from-layer="2803" from-port="0" to-layer="2809" to-port="0" />
		<edge from-layer="2804" from-port="1" to-layer="2807" to-port="0" />
		<edge from-layer="2805" from-port="0" to-layer="2807" to-port="1" />
		<edge from-layer="2806" from-port="0" to-layer="2807" to-port="2" />
		<edge from-layer="2807" from-port="3" to-layer="2808" to-port="0" />
		<edge from-layer="2807" from-port="4" to-layer="2809" to-port="2" />
		<edge from-layer="2808" from-port="2" to-layer="2809" to-port="1" />
		<edge from-layer="2809" from-port="3" to-layer="2810" to-port="1" />
		<edge from-layer="2810" from-port="2" to-layer="2811" to-port="1" />
		<edge from-layer="2811" from-port="2" to-layer="2813" to-port="0" />
		<edge from-layer="2812" from-port="0" to-layer="2813" to-port="1" />
		<edge from-layer="2813" from-port="2" to-layer="2818" to-port="0" />
		<edge from-layer="2814" from-port="0" to-layer="2818" to-port="1" />
		<edge from-layer="2815" from-port="0" to-layer="2818" to-port="2" />
		<edge from-layer="2816" from-port="0" to-layer="2818" to-port="3" />
		<edge from-layer="2817" from-port="0" to-layer="2818" to-port="4" />
		<edge from-layer="2818" from-port="5" to-layer="2820" to-port="0" />
		<edge from-layer="2818" from-port="5" to-layer="2851" to-port="0" />
		<edge from-layer="2819" from-port="0" to-layer="2820" to-port="1" />
		<edge from-layer="2820" from-port="2" to-layer="2825" to-port="0" />
		<edge from-layer="2821" from-port="0" to-layer="2825" to-port="1" />
		<edge from-layer="2822" from-port="0" to-layer="2825" to-port="2" />
		<edge from-layer="2823" from-port="0" to-layer="2825" to-port="3" />
		<edge from-layer="2824" from-port="0" to-layer="2825" to-port="4" />
		<edge from-layer="2825" from-port="5" to-layer="2830" to-port="0" />
		<edge from-layer="2826" from-port="0" to-layer="2827" to-port="0" />
		<edge from-layer="2827" from-port="1" to-layer="2829" to-port="0" />
		<edge from-layer="2828" from-port="0" to-layer="2829" to-port="1" />
		<edge from-layer="2829" from-port="2" to-layer="2830" to-port="1" />
		<edge from-layer="2830" from-port="2" to-layer="2832" to-port="0" />
		<edge from-layer="2831" from-port="0" to-layer="2832" to-port="1" />
		<edge from-layer="2832" from-port="2" to-layer="2837" to-port="0" />
		<edge from-layer="2833" from-port="0" to-layer="2837" to-port="1" />
		<edge from-layer="2834" from-port="0" to-layer="2837" to-port="2" />
		<edge from-layer="2835" from-port="0" to-layer="2837" to-port="3" />
		<edge from-layer="2836" from-port="0" to-layer="2837" to-port="4" />
		<edge from-layer="2837" from-port="5" to-layer="2842" to-port="0" />
		<edge from-layer="2838" from-port="0" to-layer="2839" to-port="0" />
		<edge from-layer="2839" from-port="1" to-layer="2841" to-port="0" />
		<edge from-layer="2840" from-port="0" to-layer="2841" to-port="1" />
		<edge from-layer="2841" from-port="2" to-layer="2842" to-port="1" />
		<edge from-layer="2842" from-port="2" to-layer="2844" to-port="0" />
		<edge from-layer="2843" from-port="0" to-layer="2844" to-port="1" />
		<edge from-layer="2844" from-port="2" to-layer="2845" to-port="0" />
		<edge from-layer="2845" from-port="1" to-layer="2850" to-port="0" />
		<edge from-layer="2846" from-port="0" to-layer="2850" to-port="1" />
		<edge from-layer="2847" from-port="0" to-layer="2850" to-port="2" />
		<edge from-layer="2848" from-port="0" to-layer="2850" to-port="3" />
		<edge from-layer="2849" from-port="0" to-layer="2850" to-port="4" />
		<edge from-layer="2850" from-port="5" to-layer="2851" to-port="1" />
		<edge from-layer="2851" from-port="2" to-layer="2856" to-port="0" />
		<edge from-layer="2852" from-port="0" to-layer="2856" to-port="1" />
		<edge from-layer="2853" from-port="0" to-layer="2856" to-port="2" />
		<edge from-layer="2854" from-port="0" to-layer="2856" to-port="3" />
		<edge from-layer="2855" from-port="0" to-layer="2856" to-port="4" />
		<edge from-layer="2856" from-port="5" to-layer="2857" to-port="1" />
		<edge from-layer="2857" from-port="2" to-layer="2862" to-port="0" />
		<edge from-layer="2858" from-port="0" to-layer="2862" to-port="1" />
		<edge from-layer="2859" from-port="0" to-layer="2862" to-port="2" />
		<edge from-layer="2860" from-port="0" to-layer="2862" to-port="3" />
		<edge from-layer="2861" from-port="0" to-layer="2862" to-port="4" />
		<edge from-layer="2862" from-port="5" to-layer="3017" to-port="0" />
		<edge from-layer="2863" from-port="0" to-layer="2864" to-port="0" />
		<edge from-layer="2864" from-port="1" to-layer="2866" to-port="0" />
		<edge from-layer="2865" from-port="0" to-layer="2866" to-port="1" />
		<edge from-layer="2866" from-port="2" to-layer="2867" to-port="1" />
		<edge from-layer="2867" from-port="2" to-layer="2870" to-port="0" />
		<edge from-layer="2868" from-port="0" to-layer="2870" to-port="1" />
		<edge from-layer="2868" from-port="0" to-layer="2870" to-port="3" />
		<edge from-layer="2869" from-port="0" to-layer="2870" to-port="2" />
		<edge from-layer="2869" from-port="0" to-layer="2870" to-port="4" />
		<edge from-layer="2870" from-port="5" to-layer="2885" to-port="0" />
		<edge from-layer="2871" from-port="0" to-layer="2872" to-port="0" />
		<edge from-layer="2872" from-port="1" to-layer="2874" to-port="0" />
		<edge from-layer="2873" from-port="0" to-layer="2874" to-port="1" />
		<edge from-layer="2874" from-port="2" to-layer="2878" to-port="0" />
		<edge from-layer="2874" from-port="2" to-layer="2876" to-port="0" />
		<edge from-layer="2875" from-port="0" to-layer="2876" to-port="1" />
		<edge from-layer="2876" from-port="2" to-layer="2884" to-port="0" />
		<edge from-layer="2877" from-port="0" to-layer="2882" to-port="1" />
		<edge from-layer="2877" from-port="0" to-layer="2883" to-port="0" />
		<edge from-layer="2878" from-port="1" to-layer="2881" to-port="0" />
		<edge from-layer="2879" from-port="0" to-layer="2881" to-port="1" />
		<edge from-layer="2880" from-port="0" to-layer="2881" to-port="2" />
		<edge from-layer="2881" from-port="4" to-layer="2883" to-port="2" />
		<edge from-layer="2881" from-port="3" to-layer="2882" to-port="0" />
		<edge from-layer="2882" from-port="2" to-layer="2883" to-port="1" />
		<edge from-layer="2883" from-port="3" to-layer="2884" to-port="1" />
		<edge from-layer="2884" from-port="2" to-layer="2885" to-port="1" />
		<edge from-layer="2885" from-port="2" to-layer="2887" to-port="0" />
		<edge from-layer="2886" from-port="0" to-layer="2887" to-port="1" />
		<edge from-layer="2887" from-port="2" to-layer="2892" to-port="0" />
		<edge from-layer="2888" from-port="0" to-layer="2892" to-port="1" />
		<edge from-layer="2889" from-port="0" to-layer="2892" to-port="2" />
		<edge from-layer="2890" from-port="0" to-layer="2892" to-port="3" />
		<edge from-layer="2891" from-port="0" to-layer="2892" to-port="4" />
		<edge from-layer="2892" from-port="5" to-layer="2897" to-port="0" />
		<edge from-layer="2893" from-port="0" to-layer="2894" to-port="0" />
		<edge from-layer="2894" from-port="1" to-layer="2896" to-port="0" />
		<edge from-layer="2895" from-port="0" to-layer="2896" to-port="1" />
		<edge from-layer="2896" from-port="2" to-layer="2897" to-port="1" />
		<edge from-layer="2897" from-port="2" to-layer="2900" to-port="0" />
		<edge from-layer="2898" from-port="0" to-layer="2900" to-port="3" />
		<edge from-layer="2898" from-port="0" to-layer="2900" to-port="1" />
		<edge from-layer="2899" from-port="0" to-layer="2900" to-port="4" />
		<edge from-layer="2899" from-port="0" to-layer="2900" to-port="2" />
		<edge from-layer="2900" from-port="5" to-layer="2915" to-port="0" />
		<edge from-layer="2901" from-port="0" to-layer="2902" to-port="0" />
		<edge from-layer="2902" from-port="1" to-layer="2904" to-port="0" />
		<edge from-layer="2903" from-port="0" to-layer="2904" to-port="1" />
		<edge from-layer="2904" from-port="2" to-layer="2906" to-port="0" />
		<edge from-layer="2904" from-port="2" to-layer="2908" to-port="0" />
		<edge from-layer="2905" from-port="0" to-layer="2906" to-port="1" />
		<edge from-layer="2906" from-port="2" to-layer="2914" to-port="0" />
		<edge from-layer="2907" from-port="0" to-layer="2912" to-port="1" />
		<edge from-layer="2907" from-port="0" to-layer="2913" to-port="0" />
		<edge from-layer="2908" from-port="1" to-layer="2911" to-port="0" />
		<edge from-layer="2909" from-port="0" to-layer="2911" to-port="1" />
		<edge from-layer="2910" from-port="0" to-layer="2911" to-port="2" />
		<edge from-layer="2911" from-port="4" to-layer="2913" to-port="2" />
		<edge from-layer="2911" from-port="3" to-layer="2912" to-port="0" />
		<edge from-layer="2912" from-port="2" to-layer="2913" to-port="1" />
		<edge from-layer="2913" from-port="3" to-layer="2914" to-port="1" />
		<edge from-layer="2914" from-port="2" to-layer="2915" to-port="1" />
		<edge from-layer="2915" from-port="2" to-layer="2917" to-port="0" />
		<edge from-layer="2916" from-port="0" to-layer="2917" to-port="1" />
		<edge from-layer="2917" from-port="2" to-layer="2922" to-port="0" />
		<edge from-layer="2918" from-port="0" to-layer="2922" to-port="1" />
		<edge from-layer="2919" from-port="0" to-layer="2922" to-port="2" />
		<edge from-layer="2920" from-port="0" to-layer="2922" to-port="3" />
		<edge from-layer="2921" from-port="0" to-layer="2922" to-port="4" />
		<edge from-layer="2922" from-port="5" to-layer="2927" to-port="0" />
		<edge from-layer="2923" from-port="0" to-layer="2924" to-port="0" />
		<edge from-layer="2924" from-port="1" to-layer="2926" to-port="0" />
		<edge from-layer="2925" from-port="0" to-layer="2926" to-port="1" />
		<edge from-layer="2926" from-port="2" to-layer="2927" to-port="1" />
		<edge from-layer="2927" from-port="2" to-layer="2928" to-port="0" />
		<edge from-layer="2928" from-port="5" to-layer="2943" to-port="0" />
		<edge from-layer="2929" from-port="0" to-layer="2930" to-port="0" />
		<edge from-layer="2930" from-port="1" to-layer="2932" to-port="0" />
		<edge from-layer="2931" from-port="0" to-layer="2932" to-port="1" />
		<edge from-layer="2932" from-port="2" to-layer="2934" to-port="0" />
		<edge from-layer="2932" from-port="2" to-layer="2936" to-port="0" />
		<edge from-layer="2933" from-port="0" to-layer="2934" to-port="1" />
		<edge from-layer="2934" from-port="2" to-layer="2942" to-port="0" />
		<edge from-layer="2935" from-port="0" to-layer="2941" to-port="0" />
		<edge from-layer="2935" from-port="0" to-layer="2940" to-port="1" />
		<edge from-layer="2936" from-port="1" to-layer="2939" to-port="0" />
		<edge from-layer="2937" from-port="0" to-layer="2939" to-port="1" />
		<edge from-layer="2938" from-port="0" to-layer="2939" to-port="2" />
		<edge from-layer="2939" from-port="4" to-layer="2941" to-port="2" />
		<edge from-layer="2939" from-port="3" to-layer="2940" to-port="0" />
		<edge from-layer="2940" from-port="2" to-layer="2941" to-port="1" />
		<edge from-layer="2941" from-port="3" to-layer="2942" to-port="1" />
		<edge from-layer="2942" from-port="2" to-layer="2943" to-port="1" />
		<edge from-layer="2943" from-port="2" to-layer="2945" to-port="0" />
		<edge from-layer="2944" from-port="0" to-layer="2945" to-port="1" />
		<edge from-layer="2945" from-port="2" to-layer="2950" to-port="0" />
		<edge from-layer="2946" from-port="0" to-layer="2950" to-port="1" />
		<edge from-layer="2947" from-port="0" to-layer="2950" to-port="2" />
		<edge from-layer="2948" from-port="0" to-layer="2950" to-port="3" />
		<edge from-layer="2949" from-port="0" to-layer="2950" to-port="4" />
		<edge from-layer="2950" from-port="5" to-layer="2955" to-port="0" />
		<edge from-layer="2951" from-port="0" to-layer="2952" to-port="0" />
		<edge from-layer="2952" from-port="1" to-layer="2954" to-port="0" />
		<edge from-layer="2953" from-port="0" to-layer="2954" to-port="1" />
		<edge from-layer="2954" from-port="2" to-layer="2955" to-port="1" />
		<edge from-layer="2955" from-port="2" to-layer="2956" to-port="0" />
		<edge from-layer="2956" from-port="5" to-layer="2971" to-port="0" />
		<edge from-layer="2957" from-port="0" to-layer="2958" to-port="0" />
		<edge from-layer="2958" from-port="1" to-layer="2960" to-port="0" />
		<edge from-layer="2959" from-port="0" to-layer="2960" to-port="1" />
		<edge from-layer="2960" from-port="2" to-layer="2962" to-port="0" />
		<edge from-layer="2960" from-port="2" to-layer="2964" to-port="0" />
		<edge from-layer="2961" from-port="0" to-layer="2962" to-port="1" />
		<edge from-layer="2962" from-port="2" to-layer="2970" to-port="0" />
		<edge from-layer="2963" from-port="0" to-layer="2968" to-port="1" />
		<edge from-layer="2963" from-port="0" to-layer="2969" to-port="0" />
		<edge from-layer="2964" from-port="1" to-layer="2967" to-port="0" />
		<edge from-layer="2965" from-port="0" to-layer="2967" to-port="1" />
		<edge from-layer="2966" from-port="0" to-layer="2967" to-port="2" />
		<edge from-layer="2967" from-port="4" to-layer="2969" to-port="2" />
		<edge from-layer="2967" from-port="3" to-layer="2968" to-port="0" />
		<edge from-layer="2968" from-port="2" to-layer="2969" to-port="1" />
		<edge from-layer="2969" from-port="3" to-layer="2970" to-port="1" />
		<edge from-layer="2970" from-port="2" to-layer="2971" to-port="1" />
		<edge from-layer="2971" from-port="2" to-layer="2973" to-port="0" />
		<edge from-layer="2972" from-port="0" to-layer="2973" to-port="1" />
		<edge from-layer="2973" from-port="2" to-layer="2978" to-port="0" />
		<edge from-layer="2974" from-port="0" to-layer="2978" to-port="1" />
		<edge from-layer="2975" from-port="0" to-layer="2978" to-port="2" />
		<edge from-layer="2976" from-port="0" to-layer="2978" to-port="3" />
		<edge from-layer="2977" from-port="0" to-layer="2978" to-port="4" />
		<edge from-layer="2978" from-port="5" to-layer="2980" to-port="0" />
		<edge from-layer="2978" from-port="5" to-layer="3011" to-port="0" />
		<edge from-layer="2979" from-port="0" to-layer="2980" to-port="1" />
		<edge from-layer="2980" from-port="2" to-layer="2985" to-port="0" />
		<edge from-layer="2981" from-port="0" to-layer="2985" to-port="1" />
		<edge from-layer="2982" from-port="0" to-layer="2985" to-port="2" />
		<edge from-layer="2983" from-port="0" to-layer="2985" to-port="3" />
		<edge from-layer="2984" from-port="0" to-layer="2985" to-port="4" />
		<edge from-layer="2985" from-port="5" to-layer="2990" to-port="0" />
		<edge from-layer="2986" from-port="0" to-layer="2987" to-port="0" />
		<edge from-layer="2987" from-port="1" to-layer="2989" to-port="0" />
		<edge from-layer="2988" from-port="0" to-layer="2989" to-port="1" />
		<edge from-layer="2989" from-port="2" to-layer="2990" to-port="1" />
		<edge from-layer="2990" from-port="2" to-layer="2992" to-port="0" />
		<edge from-layer="2991" from-port="0" to-layer="2992" to-port="1" />
		<edge from-layer="2992" from-port="2" to-layer="2997" to-port="0" />
		<edge from-layer="2993" from-port="0" to-layer="2997" to-port="1" />
		<edge from-layer="2994" from-port="0" to-layer="2997" to-port="2" />
		<edge from-layer="2995" from-port="0" to-layer="2997" to-port="3" />
		<edge from-layer="2996" from-port="0" to-layer="2997" to-port="4" />
		<edge from-layer="2997" from-port="5" to-layer="3002" to-port="0" />
		<edge from-layer="2998" from-port="0" to-layer="2999" to-port="0" />
		<edge from-layer="2999" from-port="1" to-layer="3001" to-port="0" />
		<edge from-layer="3000" from-port="0" to-layer="3001" to-port="1" />
		<edge from-layer="3001" from-port="2" to-layer="3002" to-port="1" />
		<edge from-layer="3002" from-port="2" to-layer="3004" to-port="0" />
		<edge from-layer="3003" from-port="0" to-layer="3004" to-port="1" />
		<edge from-layer="3004" from-port="2" to-layer="3005" to-port="0" />
		<edge from-layer="3005" from-port="1" to-layer="3010" to-port="0" />
		<edge from-layer="3006" from-port="0" to-layer="3010" to-port="1" />
		<edge from-layer="3007" from-port="0" to-layer="3010" to-port="2" />
		<edge from-layer="3008" from-port="0" to-layer="3010" to-port="3" />
		<edge from-layer="3009" from-port="0" to-layer="3010" to-port="4" />
		<edge from-layer="3010" from-port="5" to-layer="3011" to-port="1" />
		<edge from-layer="3011" from-port="2" to-layer="3016" to-port="0" />
		<edge from-layer="3012" from-port="0" to-layer="3016" to-port="1" />
		<edge from-layer="3013" from-port="0" to-layer="3016" to-port="2" />
		<edge from-layer="3014" from-port="0" to-layer="3016" to-port="3" />
		<edge from-layer="3015" from-port="0" to-layer="3016" to-port="4" />
		<edge from-layer="3016" from-port="5" to-layer="3017" to-port="1" />
		<edge from-layer="3017" from-port="2" to-layer="3022" to-port="0" />
		<edge from-layer="3018" from-port="0" to-layer="3022" to-port="1" />
		<edge from-layer="3019" from-port="0" to-layer="3022" to-port="2" />
		<edge from-layer="3020" from-port="0" to-layer="3022" to-port="3" />
		<edge from-layer="3021" from-port="0" to-layer="3022" to-port="4" />
		<edge from-layer="3022" from-port="5" to-layer="3027" to-port="0" />
		<edge from-layer="3023" from-port="0" to-layer="3024" to-port="0" />
		<edge from-layer="3024" from-port="1" to-layer="3026" to-port="0" />
		<edge from-layer="3025" from-port="0" to-layer="3026" to-port="1" />
		<edge from-layer="3026" from-port="2" to-layer="3027" to-port="1" />
		<edge from-layer="3027" from-port="2" to-layer="3029" to-port="0" />
		<edge from-layer="3028" from-port="0" to-layer="3029" to-port="1" />
		<edge from-layer="3029" from-port="2" to-layer="3034" to-port="0" />
		<edge from-layer="3030" from-port="0" to-layer="3034" to-port="1" />
		<edge from-layer="3031" from-port="0" to-layer="3034" to-port="2" />
		<edge from-layer="3032" from-port="0" to-layer="3034" to-port="3" />
		<edge from-layer="3033" from-port="0" to-layer="3034" to-port="4" />
		<edge from-layer="3034" from-port="5" to-layer="3035" to-port="0" />
		<edge from-layer="3035" from-port="2" to-layer="3040" to-port="0" />
		<edge from-layer="3036" from-port="0" to-layer="3040" to-port="1" />
		<edge from-layer="3037" from-port="0" to-layer="3040" to-port="2" />
		<edge from-layer="3038" from-port="0" to-layer="3040" to-port="3" />
		<edge from-layer="3039" from-port="0" to-layer="3040" to-port="4" />
		<edge from-layer="3040" from-port="5" to-layer="3045" to-port="0" />
		<edge from-layer="3041" from-port="0" to-layer="3042" to-port="0" />
		<edge from-layer="3042" from-port="1" to-layer="3044" to-port="0" />
		<edge from-layer="3043" from-port="0" to-layer="3044" to-port="1" />
		<edge from-layer="3044" from-port="2" to-layer="3045" to-port="1" />
		<edge from-layer="3045" from-port="2" to-layer="3047" to-port="0" />
		<edge from-layer="3046" from-port="0" to-layer="3047" to-port="1" />
		<edge from-layer="3047" from-port="2" to-layer="3052" to-port="0" />
		<edge from-layer="3048" from-port="0" to-layer="3052" to-port="1" />
		<edge from-layer="3049" from-port="0" to-layer="3052" to-port="2" />
		<edge from-layer="3050" from-port="0" to-layer="3052" to-port="3" />
		<edge from-layer="3051" from-port="0" to-layer="3052" to-port="4" />
		<edge from-layer="3052" from-port="5" to-layer="3054" to-port="0" />
		<edge from-layer="3053" from-port="0" to-layer="3054" to-port="1" />
		<edge from-layer="3054" from-port="2" to-layer="3059" to-port="0" />
		<edge from-layer="3055" from-port="0" to-layer="3059" to-port="1" />
		<edge from-layer="3056" from-port="0" to-layer="3059" to-port="2" />
		<edge from-layer="3057" from-port="0" to-layer="3059" to-port="3" />
		<edge from-layer="3058" from-port="0" to-layer="3059" to-port="4" />
		<edge from-layer="3059" from-port="5" to-layer="3070" to-port="0" />
		<edge from-layer="3060" from-port="0" to-layer="3069" to-port="0" />
		<edge from-layer="3061" from-port="0" to-layer="3062" to-port="0" />
		<edge from-layer="3062" from-port="1" to-layer="3064" to-port="0" />
		<edge from-layer="3063" from-port="0" to-layer="3064" to-port="1" />
		<edge from-layer="3064" from-port="2" to-layer="3065" to-port="0" />
		<edge from-layer="3064" from-port="2" to-layer="3072" to-port="0" />
		<edge from-layer="3065" from-port="1" to-layer="3068" to-port="0" />
		<edge from-layer="3066" from-port="0" to-layer="3068" to-port="1" />
		<edge from-layer="3067" from-port="0" to-layer="3068" to-port="2" />
		<edge from-layer="3068" from-port="3" to-layer="3069" to-port="1" />
		<edge from-layer="3069" from-port="2" to-layer="3070" to-port="1" />
		<edge from-layer="3070" from-port="2" to-layer="3073" to-port="0" />
		<edge from-layer="3071" from-port="0" to-layer="3072" to-port="1" />
		<edge from-layer="3072" from-port="2" to-layer="3073" to-port="1" />
		<edge from-layer="3073" from-port="2" to-layer="3075" to-port="0" />
		<edge from-layer="3074" from-port="0" to-layer="3075" to-port="1" />
		<edge from-layer="3075" from-port="2" to-layer="3076" to-port="0" />
		<edge from-layer="3076" from-port="1" to-layer="3077" to-port="0" />
	</edges>
	<rt_info>
		<MO_version value="2023.0.1-11005-fa1c41994f3-releases/2023/0" />
		<Runtime_version value="2023.0.1-11005-fa1c41994f3-releases/2023/0" />
		<conversion_parameters>
			<input_model value="DIR/model_int8.onnx" />
			<is_python_api_used value="True" />
		</conversion_parameters>
		<legacy_frontend value="False" />
	</rt_info>
</net>
